checkpoint.pth (torch, 155819 bytes, 10 tensors)

conv1.weight f4 [3, 1, 5, 5]
00000000: e474 bcbe 165e 9dbe 7bda c73d 5d21 f7bc
00000010: 8959 6c3d 9353 72be 65eb 423e 18b3 3d3d
00000020: e9d3 883e 739e df3d 1f55 b8be 65be 3e3e
00000030: 3016 323d e92b 893d f9e7 3f3e c976 92be
00000040: 84bb 263d 9930 853e b9f1 013e 9d31 b23d
00000050: 850d 56be 5299 4f3e ed8b 3b3e 8caa 89bd
00000060: 6c23 56be 7580 27be c34c 14be de69 37be
00000070: 0aec aa3d 2591 263e ea18 6fbe 2bb5 42be
00000080: a1ec db3a e40a d93d aab6 4bbe 5553 66be
00000090: f890 7bbe 8084 bcbe 94cb 97be f4cd a03d
000000a0: e860 4d3d e205 0dbd 6360 4fbe 4d4d b1be
000000b0: 67d0 8ebe d9e0 c0bd 6569 66be f9f5 88be
000000c0: e2a9 8abe 9af4 eabd 3b62 563d 5494 21be
000000d0: f764 cfbe 571a fe3c a63d b3bd de64 fa3d
000000e0: fda2 66be 7641 f3be 7cb6 e2bd 1320 debd
000000f0: 2bc5 513e 41a8 eebd 8b75 dbbe dbd4 b2be
00000100: 232e 0cbe 32cb 103e 414b 89bd 4ccb f2bd
00000110: 89d5 e9bd a314 1b3e bcf0 a13e 46d1 74be
00000120: 74f2 5d3c 7bfa 133c a036 b83d
-0.3680793 -0.30735844 0.09758469 -0.030167276 0.057702575 -0.23664694 0.19035108 0.046313375
0.26724175 0.10918894 -0.36002442 0.18627317 0.04347819 0.06697828 0.18740834 -0.2860625
0.040706173 0.2601364 0.12689866 0.08700869 -0.20903595 0.20273331 0.18315096 -0.06721982
-0.2091195 -0.16357596 -0.14482407 -0.17911479 0.08345802 0.16266306 -0.23349348 -0.19014423
0.0016778895 0.1059778 -0.198939 -0.22492726 -0.2456702 -0.3681984 -0.29647505 0.078517824
0.050141245 -0.03442944 -0.20251612 -0.34629288 -0.27893373 -0.09417886 -0.22501142 -0.26750162
-0.27082735 -0.11472435 0.052339774 -0.15779239 -0.40506718 0.03101842 -0.08751993 0.1222627
-0.22523113 -0.4751088 -0.110699624 -0.108459614 0.2048537 -0.11653186 -0.42863116 -0.3492802
-0.13689475 0.14140013 -0.06703807 -0.11855182 -0.11417682 0.15144591 0.31628978 -0.23907956
0.013546575 0.009031887 0.08994794

conv1.bias f4 [3]
00000000: 1484 0b3e 24fa 26bd c715 21bd
0.13624603 -0.040765896 -0.03932741

conv2.weight f4 [9, 3, 3, 3]
00000000: eeac 19be 1e12 d4bd 1776 5cbb 1d2f cd3d
00000010: 0164 453e 0633 2f3e 2675 74be 6f95 f2bd
00000020: c4ed 3a3e 0eac 293e 3970 2e3d f88f d23c
00000030: 3331 3e3e bfae ca3d c7bd 3b3e e5d5 313e
00000040: 69f9 393c 133e 143e 1ffb bb3d 8290 583e
00000050: 7771 f3bd 6dc0 f7bd 9c05 c03c 3d63 8b3c
00000060: fbfa 1dbc de82 fd3d 7cf3 e1bd c56e 723e
00000070: cf8c c13d 16c7 983d 4e6b 6c3e 504c c53d
00000080: a87e 6abd e88d 4c3e c5e6 933d aefc 353e
00000090: ebfa 1bbd 5177 ae3d d118 8cbd a623 36be
000000a0: 8831 43be 3468 53be cf5d c43c a020 b43d
000000b0: 825e 5dbc def5 2abe bae7 d7bd d335 86be
000000c0: c0f5 47be d95b 9fbe 2f34 b1be c00b 53be
000000d0: 8e3f a5be 2590 44be c983 913e 244b 26bd
000000e0: cb6c 71be 0bfc 133d 4e54 213e 6906 ce3d
000000f0: 8220 d03d efbd ab3d 7a60 cc3d 1c3f cabd
00000100: 899d 3bbe d70f 98bb e76b 293e 97bc 13be
00000110: ce8f 023e 9291 ae3d ab44 1abe 4b37 6cbd
00000120: 9bfb ecbd 16c8 423e cb0c d33d 92cf f9bd
00000130: ccd1 c23d 29a7 93bd 00be ee3d cd51 8c3d
00000140: a159 ffbc 3e9b acbd ff9e 973e dded 57be
00000150: 5a66 913d e276 0e3e 005e 62be 448b 733e
00000160: e544 7fbd 9e39 fd3c 15c4 9e3d 4274 ecbd
00000170: f715 68bd d16d 2d3b e384 a53d 0c3c 64bc
00000180: 2130 9f3c 7996 e3bd f539 273d ea1b a23d
00000190: c5c0 1cbe e095 ef3d 64bd e3bc f717 03be
000001a0: 7d8f e63d 1426 0f3e 7160 91be cfe6 213e
000001b0: eb03 c7bd 268e 8b3e 880c 2fbe a02b 183e
000001c0: f37f d23e a237 10bd d8dc 8c3d bff0 8b3e
000001d0: 2155 493d 42c9 5abe 8f36 19be 5838 14be
000001e0: a5ee 18be 2029 083d 1538 34be 470d 813e
000001f0: a2fc 7e3e 62fa 0c3e 818c d53d 4ed2 b1bd
00000200: 1535 4d3e 63bd 523e 1dee 18be 7d88 40be
00000210: c8ee 6a3e ed48 30bc 443c ec3d f181 8b3e
00000220: 95b2 72be 3f96 2bbe 77eb 473d 11bd 0f3d
00000230: 4a1e a7bb 81c7 0d3e 305c d63c c1c2 d7bc
00000240: 40c4 47be 210a e8bd 2e31 9f3e f209 a8bc
00000250: 74c6 30be 9435 723e b87a 85be 65fe 223d
00000260: 4886 223e 47c2 8abd 9bdb aa3d 6310 053e
00000270: 27f6 27be c002 ed3c 8489 d63b 67b0 d4bd
00000280: 545b 2d3d ea28 853e 59a6 5f3e d832 3e3e
00000290: b603 48bd cc49 2b3e 2562 10bd 460c 323c
000002a0: 5eef 453d 9408 3ebe 4923 babd 1747 f7bd
000002b0: 8593 433e 5286 ffbd ccab 3c3e 6ed5 d7bd
000002c0: 8528 24bd eb8e dbbc 2797 203e c3b8 2ebc
000002d0: 3be6 d7bd e379 52be f7af dbbd c9a1 233e
000002e0: 9f1f 183e daa8 efbd cdac 3e3e 18ea 30be
000002f0: 6a60 98bc bd08 84bd 461a 06be 0728 b23e
00000300: 056b ae3d a01a 493e ff64 743c cc01 4d3e
00000310: b5d0 803e 4031 8abd ac59 563e cb6c 843e
00000320: bd10 523d d4e9 12be 0bbd 503c 78d6 623c
00000330: 132f 35be 92d5 c93c 1335 86be ead1 803e
00000340: c8b2 923e c821 6abd 6ba1 8dbd 3cc8 5cbd
00000350: 64c7 86bd 160d 453d a172 0abe e7fc 37be
00000360: df94 8abd b78f 22be d2a5 9bbd a9aa 583e
00000370: dcb3 a2bc b946 a8bc 3842 c8bc 14bf e1bd
00000380: 57e0 12be 6791 773d 4933 b93d c460 133e
00000390: 2f57 5cbd fcb1 6dbd 5478 923d 6a72 bd3d
000003a0: db70 4a3e 11b2 72bc fd69 163e 6add cabd
000003b0: 1fe2 5a3e b71c 96bd 4d64 35bd f298 afbd
000003c0: ac92 0dbe 8b5f c63d ba41 ec3d
-0.15007374 -0.10355018 -0.0033639723 0.10018752 0.1927643 0.17109308 -0.23872814 -0.118449084
0.18254763 0.1656954 0.042587493 0.025703415 0.18573456 0.098966114 0.18334113 0.1736675
0.011350968 0.14476804 0.09178757 0.21148875 -0.11886876 -0.12097249 0.023440175 0.017015094
-0.009642358 0.123784766 -0.11032769 0.23675068 0.09450685 0.07459848 0.23087808 0.09633696
-0.057249695 0.19976008 0.0722175 0.17772171 -0.03808109 0.085188515 -0.06840671 -0.17787036
-0.19061863 -0.20645219 0.023970513 0.08795285 -0.013511302 -0.16695353 -0.10542245 -0.2621294
-0.1952734 -0.31124762 -0.34610125 -0.20609951 -0.3227505 -0.19195612 0.28420857 -0.040599003
-0.23576657 0.03612904 0.15754816 0.100598164 0.101624504 0.08385836 0.09979339 -0.098753184
-0.18321814 -0.00464056 0.16545068 -0.1442741 0.1275017 0.08523859 -0.15065257 -0.05766992
-0.115714274 0.19021639 0.103051744 -0.12197794 0.09512672 -0.07209618 0.116573334 0.0685154
-0.031170668 -0.084280476 0.29613492 -0.21086831 0.070996 0.13912538 -0.2210617 0.23783594
-0.062321562 0.030911263 0.077522434 -0.11545612 -0.056661572 0.002646316 0.08081987 -0.013930332
0.01943213 -0.11112685 0.040826757 0.079154804 -0.1530791 0.11698508 -0.02780027 -0.1280211
0.11257837 0.1397937 -0.2839389 0.15810703 -0.09717544 0.27256888 -0.17094624 0.14860392
0.41113243 -0.035209306 0.0687806 0.27332112 0.04915345 -0.21365836 -0.14962219 -0.14474618
-0.14934786 0.033242345 -0.17599519 0.25205442 0.2490106 0.13767388 0.104271896 -0.086826906
0.2003978 0.20580058 -0.14934583 -0.18802066 0.2294265 -0.010759574 0.11534932 0.27247575
-0.23700936 -0.16756533 0.04880854 0.035092417 -0.0051000463 0.13845636 0.026167005 -0.026337983
-0.19508457 -0.11330057 0.3109221 -0.020512555 -0.17263204 0.23653251 -0.2607019 0.03979339
0.15871537 -0.06775337 0.08342668 0.12994532 -0.16402493 0.028931975 0.006547155 -0.103852086
0.042323425 0.26007777 0.218408 0.18574083 -0.048831664 0.1672737 -0.035249848 0.010867184
0.04832398 -0.1855796 -0.09088761 -0.12074106 0.19099243 -0.124767914 0.1842491 -0.10538755
-0.040077705 -0.026801547 0.1568266 -0.010664168 -0.1054196 -0.20554309 -0.10726922 0.15979685
0.14855812 -0.11702128 0.18620606 -0.172768 -0.018600661 -0.06446979 -0.1309596 0.34796163
0.08516506 0.19639063 0.0149166575 0.20020217 0.2515923 -0.06747675 0.20932645 0.25864252
0.051285494 -0.14347011 0.012740384 0.013845079 -0.17693739 0.024637971 -0.26212367 0.25160152
0.28652024 -0.057161123 -0.06915554 -0.053901896 -0.065809995 0.048108183 -0.1352029 -0.17967568
-0.06766676 -0.15875135 -0.07599987 0.21158852 -0.019861154 -0.020541536 -0.024445638 -0.110227734
-0.14343391 0.0604414 0.09042985 0.14392382 -0.053794082 -0.058031067 0.07151857 0.092503384
0.19769613 -0.014812962 0.14688869 -0.09905513 0.21375321 -0.07329696 -0.044285107 -0.08574094
-0.13825482 0.09686192 0.11535974

conv2.bias f4 [9]
00000000: f8a1 94bd 653a 153d d6f2 723e 95ca 463e
00000010: 4650 07be d6b7 09bd 2c73 4c3e b2e3 9cbd
00000020: 4993 d23d
-0.072574556 0.036432642 0.23725447 0.19413216 -0.13214216 -0.033622585 0.1996581 -0.07660617
0.10281999

fc1.weight f4 [128, 225]
00000000: 4b50 51bd 270d 03bd fb87 ddbd 4c1e 90bc
00000010: 0e39 7e3d 4ac8 82bc 40b0 4cbd e3d6 d2bd
00000020: fb68 c43c 2c3d 873d 538c 9f3d 2d83 babc
00000030: 3562 06bc 7a4e 2e3d 1c27 443d d309 7b3d
00000040: e367 e03c 0ea5 ea3b cacb 043d d1d7 973d
00000050: edc7 c5bb 34ed a1bc cbbe 133d bf43 9bbc
00000060: e833 693d b6a7 9ebd 46b8 b83c 1f65 ed3c
00000070: 04d8 68b9 354c 8bbd 5acf 953c 2b5f 90ba
00000080: 138a 8f3d a1f2 57bb dfa9 98bb 1fd8 473d
00000090: 3ccd 9fbc 8d7b 1abd 5866 6cbd ec7e f4bc
000000a0: 228b 34bd 07bf 1bbd 267f 603a f8d7 8e3c
000000b0: 32fd a43d 2ba4 78bd b1f2 063d 51dd acbd
000000c0: ab09 1a3d fac8 b13d 6b73 74bd fe73 bbbb
000000d0: 9521 5f3d c0a7 363d 7736 3e3d 2845 023d
000000e0: e1ed ecbb 182e 593d 5050 d43a 72e8 0dbd
000000f0: f7fb 98bc cbd4 76bc deff 83bc ce29 18bb
00000100: 7c0c cfbd 3705 20bd 0c88 da3c 78ac 33bc
00000110: 4c09 5c3d bb6e 9cbc 3df1 98bc fa36 083d
00000120: cdb0 6b3d 8a9b 973d 9324 98bd ac3e 983d
00000130: 2ced a63b 7355 a83c 5912 81bd 4ab0 eb3d
00000140: 7f01 1b3b e7ca 593d 819d c63d 405b 89bd
00000150: 6168 853d fdf4 983b 1ccf 733b c2a0 243d
00000160: 76ad 0fbc a540 db3d 7f99 2d3c e9ac 8a3c
00000170: 273b 27bc d1f5 fd3d dfb1 9abc 6d76 5b3d
00000180: 0023 4c3d 5250 893d cb1c f43d 3109 a3bd
00000190: fb56 923d 7c75 a23c 4ace 06bd 2339 9dbd
000001a0: 766c 1c3d b88a 5f3d 2fff 1b3d 82a2 df3d
000001b0: eaf0 a03d 25c2 473e cc41 d9bc 6206 37bb
000001c0: be75 dd3c ccfc 203d 9489 cd3d 906c 5f3c
000001d0: c07a 42bd d2f8 be3d 56e4 033e f0db c03d
000001e0: e2a9 19bd 7839 80bc bf09 a7bd 71ff e23d
000001f0: c5ff b1bd 7523 b1bd 1eaa c83d cfd8 4fbd
00000200: 90d8 1f3d 446e ed3c 73c1 4a3d e9da bc3c
00000210: 12c6 80bd ded6 7e3c 60dc f63d 2d8d 623d
00000220: c57b cc3d 75e6 f13d a899 c13c e6c4 383d
00000230: b068 413d 5376 293e 7d42 373e 8ba6 8a3d
00000240: 768f 163d 628f 98bd cbc7 323e 7191 3d3e
00000250: d167 183e 3b87 593d e340 253d cb74 ea3d
00000260: 6658 b23d 2c95 8f3d 0ba9 4fbd 1c21 e13c
00000270: 03c3 793d 6d52 673d fe22 2cbd 9883 3d3d
00000280: 6c05 4d3d 6383 4e3c eb56 db3c 04c4 96bd
00000290: 6b2e c4bd b47b 513c bfe2 3dbc 5af8 eebb
000002a0: 3dbc f63c ff7f 3fbc 81fb b6bb b891 8f3d
000002b0: b82c b7bc cfff 9abc 5e93 723d 96a7 c0bc
000002c0: 5ed8 d33c a8c4 da3c 9170 8d3b 4e70 bfbd
000002d0: d639 8d3c 4229 02be 393a ffbd 3e2d 413d
000002e0: 2489 18bd e346 0abe 58cc 75bd 2548 873c
000002f0: a8ed 4b3d 3d68 0ebe 322a 61bd affd 90bd
00000300: dd94 a5bd 7a55 3f3b e14d 3abd a76b 8bbc
00000310: 7ed5 1c3d 550c d93a 42c5 673d e90e 7bbd
00000320: acec 1c3d 1d95 60bd 23b5 bebd 34c2 84bc
00000330: ef5b 9a3d e721 7cbd 5be7 babc 0c32 d9bd
00000340: 1944 1abd 24bc 713c fe58 8abc 4f8d 6cbc
00000350: 66b1 25bc 788a 8a3d 9015 843d 7096 9a3d
00000360: bf7d 0bbd 6884 1fbd b3c4 8e3d e750 c33d
00000370: 6443 553d 2621 253d e693 80bd f90c 62bd
00000380: f666 69bc 6dc7 253d 2c04 eabc 52bb 53bc
00000390: e05d 1f3d 8679 073d c565 bcbc b048 3c3d
000003a0: da4a 413d 8587 4d3d cb4e 06bc 742c 833d
000003b0: ec4f 633c e603 943d 63c5 53bd 234d 08bd
000003c0: bb8f 043d 87d6 08bd 0860 873d 2aa5 7b3d
000003d0: d4e9 1b3d 014a afbd e13f a63a 4535 163e
000003e0: b01e 0abc 0ed4 0bbc 2fe6 27bd 8e08 bb3c
000003f0: f033 f73b 3b74 c33c 4ded 893d e76a b6bd
-0.051101964 -0.031994965 -0.10816952 -0.017592572 0.06206613 -0.015964646 -0.049972773 -0.10294893
0.02397584 0.066034645 0.077904366 -0.022767628 -0.008202125 0.04255531 0.04788886 0.061288666
0.027393287 0.0071607893 0.03242091 0.074142106 -0.006035796 -0.019766428 0.036070626 -0.018953202
0.056934267 -0.07746832 0.022548806 0.028978882 -0.00022205716 -0.06801645 0.01828735 -0.001101469
0.070087574 -0.0032951015 -0.004658922 0.048790094 -0.019507043 -0.037715483 -0.05771479 -0.029845677
-0.044078 -0.038023975 0.00085638685 0.017436966 0.08056106 -0.060703438 0.032946292 -0.0844065
0.037606876 0.08680911 -0.059680384 -0.0057206145 0.054475386 0.044593573 0.04643866 0.031804234
-0.007230506 0.053022474 0.0016198251 -0.034645505 -0.018674834 -0.015065382 -0.016113218 -0.0023218277
-0.10109803 -0.039067473 0.0266762 -0.010966413 0.053719804 -0.01909577 -0.018669719 0.033255555
0.057541657 0.074027136 -0.07428851 0.07433829 0.005094191 0.020548558 -0.06302328 0.11508234
0.0023652015 0.05317202 0.0969801 -0.06706858 0.06514049 0.0046678768 0.0037202304 0.040192373
-0.008769384 0.10705689 0.010595678 0.016928153 -0.010206974 0.124004014 -0.018883644 0.053579737
0.049838066 0.06704773 0.11919554 -0.079607375 0.071454965 0.019831412 -0.032911576 -0.076769136
0.038189374 0.054575652 0.03808516 0.10919668 0.07858451 0.19507654 -0.026520632 -0.0027927388
0.027033683 0.039303586 0.100360066 0.013636723 -0.047480345 0.093248025 0.12880072 0.0941695
-0.03751553 -0.015652403 -0.08156156 0.11083878 -0.08691362 -0.08649341 0.09798072 -0.050743874
0.03902489 0.028983243 0.049500894 0.023053603 -0.06287779 0.015554158 0.12053752 0.055310417
0.09984545 0.11811534 0.02363284 0.045109652 0.04721898 0.16549043 0.17896457 0.06770047
0.03675791 -0.07449223 0.17459027 0.18512513 0.14883353 0.05310748 0.040345084 0.11448058
0.08708267 0.07010874 -0.05069832 0.027481608 0.060976993 0.05647509 -0.04202556 0.046268076
0.050054 0.012604567 0.026774844 -0.07361606 -0.09579166 0.012785841 -0.011589705 -0.0072927894
0.030119056 -0.0116882315 -0.005584181 0.070102155 -0.02236019 -0.018920807 0.05922257 -0.023517411
0.025860008 0.026705101 0.0043163975 -0.09347592 0.017239492 -0.12711051 -0.12462277 0.047162287
-0.037240162 -0.13503604 -0.06000933 0.016513893 0.049787194 -0.13906951 -0.05497188 -0.07079636
-0.08085034 0.0029195235 -0.045484427 -0.017019106 0.03828954 0.0016559461 0.056584604 -0.061293516
0.038311645 -0.054829706 -0.09311893 -0.016205885 0.07537066 -0.06155577 -0.022815397 -0.10605249
-0.0376626 0.014754329 -0.016888138 -0.0144379875 -0.010113096 0.06764692 0.06449425 0.07548225
-0.034055468 -0.03894463 0.06971111 0.09536915 0.05206622 0.040314816 -0.062782094 -0.055188153
-0.014245739 0.04047339 -0.028566442 -0.012923079 0.038907886 0.03307488 -0.022997746 0.045967758
0.047190525 0.05017807 -0.008197497 0.06404963 0.013874035 0.07227306 -0.051701915 -0.03327669
0.032363635 -0.033407714 0.066101134 0.06143681 0.038064793 -0.08559037 0.0012683832 0.14668758
-0.008430168 -0.0085344445 -0.040991005 0.022831228 0.007544033 0.023859134 0.06734715 -0.08907109

fc1.bias f4 [128]
00000000: c9a5 e93b e9b3 31bd 9f20 f6bc fe1d 353d
00000010: 0ce8 133d 9fd6 1a3d d4bb 88bd 98aa 46bd
00000020: e5ba 06bd af96 52bd 53dd cfbb efa6 863c
00000030: 2144 77bd 3e7d 29bc cb31 5f3d 13be 323d
00000040: 191a 173d c4ec 653d f8a1 693d b1f2 b3bb
00000050: 1aa7 2b3d 9fd6 94bb 3e42 4f3d bf2b eb3b
00000060: 2767 dabb 175a de3c 4bf4 65bd ae7c a43c
00000070: b396 8a3b 7ab7 77bd 40d4 3cbc d97e 59bd
00000080: c964 b73d 1253 74bd 25ae 29bd 4d7e ef3c
00000090: 9007 b6bc f131 2d3d 8593 b5bc c2c5 81bc
000000a0: 527a 153d 4ead 083c 8176 1d3d 7389 50bd
000000b0: f71f 31bc 7d8f 05bd 59d3 c83d ab14 69bd
000000c0: 89fb 693d ed66 ef3c e004 613d f317 563b
000000d0: a29c f339 51c1 acbc dada 333d 08d2 5a3b
000000e0: a834 603d 0012 eabb 32c6 573c 9989 403d
000000f0: 318d 97bd 7e1f 203b 566d b53c 595b 773d
00000100: 9c64 99bd 9634 5cbd 4407 a93d 5763 233d
00000110: d3b9 95bd a9eb ebbc 4f07 8dbd 3e67 dc3d
00000120: b00c a5bd 80c8 843d 2484 913d f8c4 9d3d
00000130: 7b19 c8bc cf5e 923d 3d63 7fbd 17e2 723d
00000140: 2893 6b3d b236 cb3c d357 213c 7468 4e3d
00000150: 5bbc 553d 8cf3 d0bc ca32 0d3d 2856 a73d
00000160: 2af9 e6bc c480 2bbc b70d 6d3c bfbf 883d
00000170: 9207 a63c 634f a53d 8083 123d bbbc 81bd
00000180: 5307 2ebc 01bb 543d 8c0c 543c 63b0 03bd
00000190: 2938 123d 17e7 17bd a95a 633d 7e47 ce3d
000001a0: fe4e 273b 8723 ba3d fab6 993c c393 fe3d
000001b0: cf02 893d 55cb 313c 36ab afbc d892 763d
000001c0: ba7e 7bbd 6fe3 34bd dab0 813d 4242 df3d
000001d0: 4312 a03c 7c8f 77bd c6bb 8c3c 69b5 073c
000001e0: 5001 4c3b 91b1 f13c 7f3c 1d3d 1da2 ba3d
000001f0: 909a 713c f92a 24bc c89d 473d 1eca 08bd
0.007130359 -0.043384466 -0.030044852 0.044218056 0.03610997 0.037802335 -0.0667645 -0.048502535
-0.03289308 -0.051413234 -0.0063435226 0.016437022 -0.060367707 -0.0103448015 0.054490846 0.0436383
0.036890123 0.056134 0.05703923 -0.0054915776 0.041907407 -0.0045421864 0.050600283 0.007176846
-0.0066651287 0.027142568 -0.05614118 0.020078983 0.0042293905 -0.06047771 -0.011525214 -0.053099487
0.0895477 -0.059649535 -0.041425843 0.02923503 -0.022220403 0.042283956 -0.02216507 -0.015841369
0.036493607 0.0083421 0.038443092 -0.05091233 -0.010810844 -0.032607544 0.09805936 -0.056904476
0.05712465 0.029223884 0.05493629 0.0032668083 0.00046465272 -0.021088274 0.043909885 0.0033389349
0.054737717 -0.007143259 0.013169812 0.047006223 -0.07399977 0.0024432833 0.022146862 0.06038985
-0.07489893 -0.053761087 0.08253339 0.03988966 -0.07310834 -0.028798895 -0.0688616 0.107618794
-0.080590606 0.06483555 0.07105282 0.077035844 -0.024426213 0.071469896 -0.0623505 0.059297647
0.057513386 0.024806354 0.009847599 0.050392583 0.052181583 -0.025506757 0.034472264 0.0817073
-0.028194983 -0.010467712 0.014468602 0.06677198 0.020267282 0.080717824 0.03576994 -0.063348256
-0.010621863 0.051936153 0.0129424445 -0.032150637 0.03569809 -0.03708562 0.055506382 0.1007223
0.002552926 0.090888076 0.018764008 0.12430527 0.06689989 0.010851701 -0.021443944 0.060198635
-0.061400153 -0.04416221 0.0633256 0.109013095 0.019539958 -0.06043957 0.017179381 0.008282998
0.0031128712 0.029503616 0.03838777 0.09112952 0.014746323 -0.010020011 0.048734456 -0.03339588

fc2.weight f4 [64, 128]
00000000: 58c3 873d b6ec 08be 790c 263e b5eb 4abb
00000010: 9f82 883d 0afd 00bd db83 8f3d e9c4 22be
00000020: b454 7f3d 126d 59bc 9358 243d 4f49 e43c
00000030: a4e0 56bd e92c f53c 7d26 ab3d fe7a cc3d
00000040: 62e2 35bc b101 0f3c 2163 ad3d be14 41be
00000050: d3fa d4bd 52b0 13be 26dd 9d3d f8c2 bbbd
00000060: 6ee0 193d 9ebf f5bc 96cd 143d 7f67 a9bd
00000070: 5141 873b 4415 d53c 21fd cb3d 880b 97bd
00000080: 52b1 a13d cde1 52bb 6aec 353d aa81 033e
00000090: 8f47 63bd 1ef8 223d ee4f 0f3d ffc8 163e
000000a0: 1ae6 743b 1cdb 3bbb e3b6 993d 13b3 73bd
000000b0: 573c ddbc cddc cc3d b8dd 6f3d a967 4ebd
000000c0: 0deb 093d fb8c 21bd 48b3 aabd 588c c7bd
000000d0: 800e 05bd 2af9 bcbb 759b ae3d e285 e63d
000000e0: 0c85 a7bd a1bb debd 2cf4 5ebd be7f 04be
000000f0: 8d5c 913d 2473 9b3d 7478 a2bd 42a1 da3d
00000100: 602c b23d 898d 7d3d 09cb 573d bfe1 c9bd
00000110: 366f 843d f3d8 e93d 9fb5 4dbd 4d39 e93d
00000120: ef49 703d ceb0 523c 8c12 873b 9e95 3abd
00000130: 4894 b8bd 5912 47bc 6dcc 97bd 6299 683d
00000140: 945a 98bd 4096 203d 020e 573d f26e f53d
00000150: 3bfc 043e 90a6 25bd 0526 f23b 00bc ccb4
00000160: 8a87 15bc 9c2b aa3d bed0 8cbd cd18 fc3c
00000170: cad2 c93d d01d b43d f62f f03d 9119 163d
00000180: c0bc 3dbd 897f 013e 9b4e 133d c841 a13d
00000190: e6b8 86bd b6ce 403d a734 81bd bba0 193d
000001a0: a5e9 5dbd e892 83bd b346 2d3d 3ad4 b83d
000001b0: 280e 11bd 0d9f ee3d a432 093e a44a 9f3d
000001c0: 3dd6 abbd 659d debb 8ca5 033e fe90 723d
000001d0: e700 7e3d 638f 453d 7062 c9bc b09d efbd
000001e0: a95c 5c3a fe8a ce3d 3238 1ebe 10f1 fdbd
000001f0: 2a8f 7dbe 184b 1cbb a516 a13d d384 8abd
00000200: 60d5 b9bc 4797 933d e204 933d 6a9c 4f3d
00000210: 41e3 4e3d ca25 f3bc 80dc 75bb ae8f 8cbb
00000220: ab57 93bd e2e0 39bd 7519 4ebd b36e 79bd
00000230: 1851 cabc 7fa6 973d b8e4 3dbd 9f9c 513a
00000240: 1053 5dbd df55 b33d 56b0 3c3c 8391 94bd
00000250: de61 98bd 463f 6cbd 9d76 39bd 031c 303d
00000260: ee20 1e3d a212 bbbd 3328 b1bd e488 14bd
00000270: ce04 483d 0429 703d 70d1 b5bc 4c53 7dbd
00000280: 9c2f eb3b 1084 43bc fa2b c93c 36e3 2abd
00000290: 6dac 9abd a414 bebc fc14 9abb f799 1bbd
000002a0: 5539 d0bb d0d7 a73b 7007 cfbb 4cfd 5e3d
000002b0: cd83 103b 041b 8c3d 6883 6abd 1f8d a33c
000002c0: ec46 16bd d438 033d 975c acbd 4901 4abd
000002d0: 3f71 2e3d 114b 9dbc 2a36 d2bc 420c 7d3d
000002e0: 244a 90bd 3905 013d c9eb 583c 6eef 5cbc
000002f0: 00dd bfba 09ec 5ebd d890 c33b a843 273d
00000300: 118d 15bd 4243 1a3d 5be2 b0bd eaee 81bd
00000310: 8e52 0fbd d314 b03c f40f b5bc 7c38 efbc
00000320: 469b 6f3d f77b c3bd bf5e 66bd bf73 acbb
00000330: 9bd7 a33d 52a5 d53c 9bcc 1ebd 2f30 863c
00000340: 3ad5 3ebd a847 b9bc 7145 943d 7026 a4bd
00000350: 937f c53b 0c53 0ebd 7045 883d bb3b f2bb
00000360: 0aee 573d e2a0 243d 051d cc3c b5fb 32bd
00000370: ec25 dabc d90c 00bd bdb5 9abd 9ad3 913d
00000380: fa0a 903d 60c3 98bd a5ef 2a3c ed1c b33c
00000390: 2f6c 82bd d2fb 443c ec15 853d 8d85 01bd
000003a0: a9b7 85bd e0e9 c3b9 ee5c 86bd e4bc 18bd
000003b0: fcfc 543c 5292 0d3d 6c41 40bb 5f1f 483d
000003c0: 8964 a83d 9f15 9a3d 9d72 edbb e498 493d
000003d0: 321e 8c3c 3a55 15bc c0a7 633d f64f bf3b
000003e0: f893 5bbd 5264 3d3d e176 debb 80d8 123d
000003f0: 779a 8a3d ef75 5abd 59a1 65bd 638d 953d
0.06629056 -0.13371548 0.16215695 -0.0030963246 0.06665539 -0.031491317 0.07007571 -0.15895428
0.06233664 -0.013270633 0.040123533 0.027866988 -0.052460328 0.029928641 0.083569504 0.099843964
-0.011101337 0.008728431 0.08466173 -0.18855569 -0.103994034 -0.1442273 0.07708196 -0.09168047
0.03756755 -0.029998597 0.036328875 -0.082716934 0.0041276594 0.026011117 0.0996039 -0.07375246
0.07895149 -0.0032178045 0.044414915 0.12842432 -0.055488165 0.039787404 0.034988336 0.14725111
0.0037368597 -0.0028664535 0.07505586 -0.05949695 -0.027006311 0.10003052 0.058561057 -0.050391827
0.033671428 -0.03944109 -0.083349764 -0.09743565 -0.03248453 -0.0057670074 0.08525745 0.11256005
-0.081796736 -0.10875631 -0.05443208 -0.12939355 0.07097731 0.07590321 -0.07933131 0.10675289
0.0869987 0.061902557 0.052683864 -0.09857511 0.06466524 0.11418333 -0.050222035 0.113878824
0.05866426 0.012859536 0.004122084 -0.045552842 -0.090126574 -0.0121503705 -0.07412038 0.056786902
-0.074391514 0.03920579 0.052503593 0.11984052 0.12986843 -0.04044205 0.007389786 -3.813475e-07
-0.009126553 0.08309099 -0.06875752 0.030773545 0.09854658 0.08794749 0.11727898 0.036645476
-0.046322584 0.12646307 0.035963636 0.07873875 -0.06578235 0.047072135 -0.06308871 0.0375068
-0.0541779 -0.064245045 0.042303752 0.09024854 -0.03541389 0.1165143 0.13398224 0.077779084
-0.08390472 -0.0067936652 0.1285612 0.059220307 0.06201258 0.048232447 -0.024583071 -0.116999984
0.00084061414 0.100851044 -0.15451124 -0.12399495 -0.24761644 -0.002384847 0.07865647 -0.067636155
-0.022684753 0.07206588 0.07178666 0.050686277 0.050509695 -0.029681105 -0.0037515461 -0.004289589
-0.07194456 -0.04538048 -0.050317246 -0.060896587 -0.024696872 0.074048035 -0.0463607 0.00079960556
-0.054034293 0.08756613 0.011516651 -0.07254317 -0.07440542 -0.05767753 -0.045279134 0.042995464
0.038605623 -0.09134413 -0.086502455 -0.03626336 0.048832707 0.058632866 -0.022194594 -0.061847016
0.0071773063 -0.011933342 0.024557102 -0.04172059 -0.07552419 -0.023203202 -0.0047022086 -0.03798863
-0.0063544908 0.0051221624 -0.0063180253 0.05444078 0.0022051216 0.0684109 -0.057254225 0.019964753
-0.03668873 0.032036617 -0.084160976 -0.049317632 0.04258847 -0.019200834 -0.025660593 0.061779268
-0.07045391 0.03149912 0.013239809 -0.013484819 -0.0014638007 -0.05442432 0.0059681945 0.040836006
-0.036511485 0.0376618 -0.08636924 -0.06344397 -0.03499084 0.021494305 -0.022102334 -0.029201739
0.05849769 -0.09545129 -0.0562427 -0.0052628214 0.08000108 0.026079807 -0.038769346 0.016380398
-0.046590067 -0.022617176 0.072398074 -0.08015144 0.006027171 -0.03474717 0.06653869 -0.0073923743
0.052717246 0.040192492 0.024916181 -0.043697078 -0.02662941 -0.031262252 -0.07554195 0.07120438
0.070333436 -0.0745914 0.010433112 0.021864379 -0.06368291 0.012022929 0.06498322 -0.031621505
-0.06529171 -0.0003736755 -0.06560694 -0.037289515 0.012999769 0.03456337 -0.002933587 0.048858043
0.082223006 0.07523655 -0.007246329 0.049218073 0.017104242 -0.009114558 0.0555799 0.0058383895
-0.05360791 0.04623825 -0.006789074 0.035851 0.06767743 -0.053335126 -0.056062076 0.07302358

fc2.bias f4 [64]
00000000: 98fa 673d 5f4a 8abd dfd9 b43d cc19 85bd
00000010: c08b cc3d 4201 b23d 957f 403c d6f1 e7bc
00000020: 6ae9 1b3d da85 ffbc 1333 883c 0ffd 8dbd
00000030: 79be 84bc 4904 873c 0292 593d 80df d4bd
00000040: 3388 3b3d a8a4 853c 9503 9dbd 4d3f b9bd
00000050: 9784 de3d ffe1 8dbd 0875 253d 6aa8 223c
00000060: 58b5 a43c 67b1 c23d 435c 993d 83cf 833d
00000070: 3ede c43d 551f 32bd a3d5 103c 11a7 91bd
00000080: 7d28 bf3d 101e 963d c2fa c9bd e8f8 c1bd
00000090: a881 7dbd 7f95 303d a0c2 613d 11f8 d83c
000000a0: d11c 853d 17e2 b5bd 147a 913d 3069 1dbc
000000b0: 0a58 0abc 9c74 a3bd e2d0 a3bd 27d8 923d
000000c0: 348b d3bc 5459 8dbd d74d 03bd bf0c 8dbd
000000d0: d5df fbbc d7b7 0c3e 3525 ca3d 93ab 97bd
000000e0: cdc1 bbbd 0b28 1dbd 6ce7 2bbd 6736 b03d
000000f0: c0f0 763d 3ce4 7e3d 29e8 a9bd f23f 153d
0.05663547 -0.067524664 0.08830618 -0.06499061 0.09987593 0.08691646 0.011749168 -0.028313559
0.038064398 -0.031191755 0.016625917 -0.06933033 -0.016204106 0.016481536 0.05311776 -0.10394192
0.045784187 0.016313866 -0.07666699 -0.09045277 0.10865133 -0.06927871 0.040394813 0.009927848
0.020106003 0.09506493 0.07488301 0.06436064 0.09612702 -0.04348691 0.008839997 -0.071119435
0.093338944 0.07329953 -0.098622814 -0.09471303 -0.061891228 0.04311132 0.05511725 0.026485475
0.06499637 -0.08881014 0.07103363 -0.009607598 -0.008443842 -0.07981226 -0.079988256 0.07170134
-0.025823213 -0.069018036 -0.032056656 -0.06887197 -0.03074638 0.13742004 0.09870378 -0.07405772
-0.09167824 -0.038368266 -0.041968748 0.086041264 0.06028819 0.06222938 -0.08296234 0.036437936

output.weight f4 [10, 64]
00000000: 89eb 8f3b 3a8c 463d a413 70bd 5644 b4bd
00000010: ad60 84bd 08a3 b43b 492d 6dbd 7c41 543d
00000020: de8e 083c 82c7 7e3d 8890 11be 3e75 db3d
00000030: 68fc 873c 82dd a9bd 4262 62be 1826 d93d
00000040: 7406 adbd 1735 5b3d 4e2d 953d 8e32 c8bd
00000050: 2f0a 25bd 880e aabd 94d2 7a3c abca 01be
00000060: f8bd c73c b46d c03d 1b72 fdbd 38d9 2abe
00000070: 2045 d93d 93ac d03b 3232 15be 9cf7 abbd
00000080: 2a06 2f3d 21da 39bd 0299 063e 33e3 95bd
00000090: 204c a9bd 858c b73d e077 b63d 6a97 bbbd
000000a0: dd9c 213e 2e85 b6bc d1e9 853d 08da 9c3c
000000b0: 7a9e 1f3e d852 1abc fffa f03d bbf2 263c
000000c0: 7336 e4bd dcbb a03d c9f0 473d 07d8 f03d
000000d0: e35f 603d ae10 c93d 3784 5e3c abcd c03d
000000e0: 8cda fbbb e713 203e 994e 193c e6eb 0ebe
000000f0: ea1c 9a3d 4fba 4bbd 836d a7bd 975c fabc
00000100: 4b79 73bd c451 df3d 788d 81be f3e6 433e
00000110: 4efa 20be 579f e13d 3d2c 1bbd 48c9 443d
00000120: 5a57 e03c 1944 103d fc28 893d fb5d bebd
00000130: 943e 833d 0f42 ddbd a506 a63d 9b87 60bd
00000140: 5ecb 93bd 15b0 03be 2868 19bd 98cd 563d
00000150: 1f29 96bb 34fc 993d a6eb 34be 3681 c93d
00000160: 7aba 6bbd c225 083e e5d6 95bd 5437 89bd
00000170: eee6 84be 9aab 11bd 008e 0d3d 2ef9 a03d
00000180: 806c 49bd fb8b b03d 154c 3bbd d2cc 853d
00000190: 7942 293e 819b d03c ddc3 28bd 281a 54bd
000001a0: 333e 8c3d 1b5b 02be ef7a a9bd d2fb e1bd
000001b0: 3352 98bd 191f 88bd 5e77 fc3d 5dd1 b0bd
000001c0: 84ce 323e 5698 ff3c 11da 82bc 89e3 4abd
000001d0: 96f0 d5bc e20c e33d 674f 89be 2b46 e93c
000001e0: cfc2 313c 2c34 98bd 4ea6 babd 9f81 03bd
000001f0: d81b 363a 8ac5 2dbe b2d4 443c e451 193d
00000200: 5998 72bd 42e0 de3c a41d b4bc c9db 363d
00000210: 6134 8f3d 9b4d 03be 560c 09bd 383e 82bc
00000220: 52e2 88be a02a 9a3d 8cb7 153e 3797 18bd
00000230: 44b4 f53d a99d 3abd 219f b13b c0f3 3abd
00000240: 16f9 2bbd e940 11bd 4ae8 e6bd 4d25 4dbd
00000250: 884e 853c b05a 173d 1611 943d 3b00 8cbd
00000260: 3095 f43d 6333 63be 2b6b 3fbe b480 8cbd
00000270: df32 e0bd 4a7a 38be 7391 a6bd c6a8 453d
00000280: d3b5 64bd 3756 3abe 3df2 87bd 7ec1 0e3d
00000290: 0483 9bbd 41c1 c7bd b4af af3c f56c 1d3e
000002a0: 4556 123e 93f6 c73c 285a b73d 3819 fbbd
000002b0: 1b2c afbd 0c95 47bc bad1 80bd 7dc9 9c3d
000002c0: a0b9 adbd 65d7 253c 15c8 973d 167f 653d
000002d0: a78d b83d 9573 133e d7af 903d 80a1 0abe
000002e0: 9acd 5fbd 7a62 b5bd f351 863d faec 0a3d
000002f0: cc58 88bd 0973 cd3d 2733 5a3d 399a 5abe
00000300: e762 3f3d cd7c c43d b369 0fbd 560b 30bd
00000310: 58de 49bd 6381 0c3e 55c8 38bd 6094 f13c
00000320: e3ef 593d 3f61 13be 3ee1 0ebd 3bda c7bd
00000330: 3e9a d63b b01a aa3d ee9d 8bbd 818f a83d
00000340: 60dd c23a 5ee6 34be 3e88 b23d f74a 66bd
00000350: ac47 223d b22d 883d 132e b3bd c626 c4bd
00000360: f2ae 073d 0e98 a03b 3be3 d83d 4578 b13c
00000370: 02ad eebd 9f0f 0cbc 4791 77bd 8d23 443d
00000380: 411c 8fbc 33e2 29be f7e8 bb3d bd62 4d3d
00000390: 3862 d4bd 9ebc d23d 3735 fcbd 6eb3 503d
000003a0: e7de c1bd bfd5 463d 82b1 56be 2cd3 07bd
000003b0: 12cd c93d 66eb 2dbd b0aa db3b c67e 8abd
000003c0: c4e9 933d c0c0 e73d 1f34 173e dc20 7d3d
000003d0: c93f fd3c b681 243d 0eb1 cf3d 516d 07be
000003e0: d7bd c1bd 37d0 c4bd 8737 1ebd 7cc0 7f3d
000003f0: ad75 0ebe 9fd6 613c 0fc8 063e 5ad3 f93d
0.0043920917 0.048473574 -0.05861248 -0.088020965 -0.06463752 0.005512599 -0.057904515 0.051820263
0.008334843 0.062201984 -0.1421529 0.107157215 0.016599849 -0.082942024 -0.22107795 0.10602969
-0.084484965 0.053517427 0.07284032 -0.097752675 -0.040292915 -0.08303553 0.015308995 -0.12674968
0.024382576 0.09395924 -0.123752795 -0.16684425 0.10608888 0.0063682287 -0.14569929 -0.08396837
0.042730488 -0.04537404 0.13144305 -0.073187254 -0.08266473 0.08962349 0.08909583 -0.09159739
0.15782495 -0.022280302 0.065387376 0.019146934 0.15587798 -0.009419166 0.11766624 0.010189707
-0.11143198 0.07848331 0.048813615 0.11759954 0.054778945 0.098176345 0.013581327 0.09414228
-0.007685965 0.15632592 0.009357118 -0.13957176 0.07525046 -0.049738225 -0.081751846 -0.030561728
-0.059441846 0.109042674 -0.25303245 0.19131069 -0.15720484 0.1101672 -0.037883986 0.04804352
0.027385402 0.035221193 0.0669727 -0.09295269 0.0640842 -0.10803615 0.08106736 -0.054816823
-0.072165236 -0.12860139 -0.037452847 0.052442163 -0.0045825387 0.07518807 -0.17668018 0.09839098
-0.057550885 0.13295653 -0.073163785 -0.06700006 -0.25957435 -0.035564043 0.03455925 0.07860027
-0.04917574 0.08620449 -0.045726854 0.06533207 0.16529264 0.025464775 -0.041202415 -0.051782757
0.06847801 -0.12730066 -0.08275401 -0.11034359 -0.07437553 -0.066465564 0.12327455 -0.08633683
0.17461592 0.03120057 -0.015973123 -0.0495334 -0.026115697 0.110864416 -0.26818392 0.028475842
0.010849669 -0.07431826 -0.09113751 -0.03210604 0.0006946898 -0.16969886 0.012013601 0.037431613
-0.05922732 0.027206544 -0.02198679 0.044643197 0.06992412 -0.12822573 -0.03345903 -0.015898809
-0.2673517 0.07527661 0.14620799 -0.037253585 0.119972736 -0.045560513 0.005420581 -0.045642614
-0.041985594 -0.035462294 -0.112747744 -0.0500844 0.016272798 0.03695172 0.072298214 -0.068359815
0.11942518 -0.22187571 -0.18693225 -0.06860486 -0.10947203 -0.180154 -0.08133211 0.048256658
-0.055837464 -0.18196951 -0.06638 0.034852497 -0.075933486 -0.09753657 0.021446086 0.15373595
0.14290722 0.024409568 0.08952743 -0.122606695 -0.08553334 -0.012181532 -0.06290002 0.07655618
-0.08482671 0.010122155 0.074112095 0.0560294 0.09011393 0.1439956 0.07064789 -0.1353817
-0.054639436 -0.088566735 0.06558599 0.033917405 -0.06657562 0.10031707 0.05327144 -0.21347894
0.04672518 0.09594116 -0.035012912 -0.04297956 -0.04928431 0.13721232 -0.045112927 0.029489696
0.05320729 -0.14392565 -0.034882776 -0.09758421 0.006549149 0.083058715 -0.06817232 0.08230496
0.0014867 -0.17666003 0.087173924 -0.056223836 0.039619133 0.06649341 -0.08749022 -0.09577708
0.033125825 0.004900939 0.10590216 0.021663794 -0.11654092 -0.008548646 -0.06044128 0.047885466
-0.017469527 -0.16590194 0.09175294 0.050142992 -0.10370296 0.10289882 -0.123148374 0.050952367
-0.094663434 0.048543688 -0.20966151 -0.033160374 0.09853567 -0.04246082 0.006703697 -0.06762461
0.07222322 0.11316061 0.14765976 0.061798915 0.030914204 0.040162764 0.101411924 -0.13225295
-0.09460037 -0.09610026 -0.038627174 0.062439427 -0.13912077 0.01378408 0.13162254 0.12198515

output.bias f4 [10]
00000000: 53b7 ccbd 3e4b a23d bbee e83c 7ef9 793c
00000010: aa6d 00be 2b81 b8bd aa08 883d 011d febc
00000020: d067 94bd e922 b53d
-0.09995904 0.079245076 0.028434148 0.0152572375 -0.12541834 -0.09009012 0.066422775 -0.03101969
-0.07246363 0.08844549
