checkpoint.pth (torch, 933867 bytes, 10 tensors)

conv1.weight f4 [32, 1, 3, 3]
0.069726914 0.014267785 0.02753834 0.19367352 -0.29026866 0.035090458 0.27020946 -0.59995025
0.30906036 0.22404128 -0.39934158 0.2414069 0.025513168 -0.34248468 0.4073991 -0.15756758
-0.3627973 0.37259632 -0.17630267 0.07396447 0.32851088 0.07108435 0.25904378 -0.326336
-0.23072962 -0.3436422 0.32725996 -0.014591245 -0.44323817 -0.057635173 -0.12345727 0.25627813
0.23972483 0.14742118 -0.16366673 0.20887855 -0.35991955 -0.26127493 0.38618243 -0.2574889
-0.29650664 0.28224292 0.058999006 -0.11552729 0.019158127 0.21469514 0.36502022 0.021749837
0.042627163 -0.1769575 0.21449839 -0.3497834 -0.07387059 -0.017898256 0.009652509 0.13881354
0.1525116 0.39445254 0.3481154 0.027605675 -0.5130334 -0.045375913 -0.08226749 -0.14348179
-0.19644971 0.2748175 -0.23982342 -0.3317469 -0.178243 0.1821471 -0.16742517 0.25903124
-0.25599822 0.028968811 0.1777296 0.27731684 -0.32543615 0.18351074 -0.07331475 0.035746202
-0.109843045 0.21383585 -0.1457545 0.3395222 0.13343188 -0.009366195 -0.12190713 0.016458206
0.3349263 0.28227487 0.085715406 0.25215796 -0.2849236 0.20820117 0.07670606 -0.08323098
0.014810237 0.14687288 0.15038995 0.24361765 -0.023340622 -0.096256815 -0.2602363 -0.26843983
-0.3577175 -0.07057907 0.059595115 -0.18765685 -0.09522441 0.32201225 -0.32791853 0.22016045
0.27970785 -0.41136837 -0.19996636 0.48143226 -0.24832146 -0.21914412 0.15593629 -0.01992153
-0.35497418 0.42049888 -0.06643292 -0.4886164 0.28847635 0.2764455 0.10340743 -0.3915502
-0.47866845 -0.08200689 -0.04955424 -0.23915428 0.2942764 -0.13429832 0.35342935 -0.17812064
-0.11724109 0.18880954 -0.14580655 -0.2230183 0.14193083 -0.3422333 -0.09834836 0.12642094
0.12070081 -0.054822326 0.4205007 -0.17533122 0.36537784 0.030212887 0.043507308 -0.32209912
-0.46690032 0.10450829 -0.11628005 -0.24863431 0.06678395 -0.20400009 -0.013484884 -0.022260519
0.015840804 -0.047547627 0.05377324 -0.016479155 0.37005454 -0.30547383 0.081562005 0.12045003
-0.35074204 -0.055129085 0.2110424 -0.06221222 0.26485482 -0.21560875 -0.27891836 0.24344105
-0.123914264 -0.11428001 0.3207695 -0.013217824 0.07762856 0.14892194 0.2438174 -0.14228219
-0.370108 -0.033785615 -0.086634465 -0.28833047 -0.2637479 0.09421592 -0.13013563 0.077308305
0.07397045 -0.15451525 0.28194293 -0.2972507 0.019693965 0.021103177 0.2766849 -0.14397344
-0.100968316 -0.010330752 -0.31973737 0.19792464 -0.11758872 -0.056155194 -0.08305843 0.018942647
-0.037724715 -0.006079389 0.35313848 -0.13142993 -0.18160896 0.29475144 0.1393854 -0.42761317
-0.1910268 -0.22914355 0.08978372 -0.22411627 0.16358854 0.20450737 -0.39096808 -0.2651541
0.39864287 -0.3579812 -0.23211004 -0.054542594 -0.32013616 -0.18047437 0.07006813 0.21409184
0.02833831 -0.17360024 0.2306556 0.39209267 -0.014440709 0.28208947 -0.18708597 0.044583026
-0.46806833 -0.3780567 0.028673772 -0.14233968 -0.11473042 0.012596691 -0.14902212 -0.21582565
-0.06542664 0.047779106 -0.10140576 -0.07035463 -0.08656727 0.10098356 0.09640639 0.029538514
00000000: fccc 8e3d 6dc3 693c 1698 e13c 5a52 463e
00000010: 189e 94be 03bb 0f3d e558 8a3e 5796 19bf
00000020: 293d 9e3e 146b 653e 8076 ccbe 5f33 773e
00000030: fe00 d13c 275a afbe 9d96 d03e 6559 21be
00000040: 91c0 b9be f2c4 be3e b088 34be af7a 973d
00000050: 9432 a83e ac94 913d 63a1 843e 8315 a7be
00000060: 6344 6cbe dff1 afbe 9e8e a73e 1e10 6fbc
00000070: 1df0 e2be dc12 6cbd 2ad7 fcbd e336 833e
00000080: 6d7a 753e 94f5 163e 4098 27be 42e4 553e
00000090: 6047 b8be d4c5 85be b4b9 c53e 96d5 83be
000000a0: b8cf 97be 2582 903e f1a8 713d 9299 ecbd
000000b0: 81f1 9c3c 0bd9 5b3e eee3 ba3e b72c b23c
000000c0: d299 2e3d 5934 35be 77a5 5b3e cf16 b3be
000000d0: 7749 97bd 5d9f 92bc 8f25 1e3c 2325 0e3e
000000e0: 002c 1c3e aff5 c93e 2f3c b23e 4c25 e23c
000000f0: 2856 03bf 18dc 39bd dc7b a8bd e4ec 12be
00000100: 1d2a 49be e1b4 8c3e 4594 75be bbda a9be
00000110: 5585 36be c584 3a3e 8171 2bbe be9f 843e
00000120: 3312 83be 0050 ed3c c0fe 353e 79fc 8d3e
00000130: 919f a6be 3dea 3b3e 0b26 96bd 9c6a 123d
00000140: 64f5 e0bd c9f7 5a3e ab40 15be dbd5 ad3e
00000150: 5ea2 083e ab74 19bc 72aa f9bd 5cd3 863c
00000160: 767b ab3e 5586 903e 8f8b af3d d91a 813e
00000170: 82e1 91be b032 553e 1118 9d3d 0175 aabd
00000180: a3a6 723c d865 163e d3ff 193e e876 793e
00000190: d534 bfbc 4b22 c5bd b13d 85be f270 89be
000001a0: c026 b7be c28b 90bd 021a 743d 1e29 40be
000001b0: 0405 c3bd cade a43e f0e4 a7be be71 613e
000001c0: de35 8f3e e09e d2be fbc3 4cbe 4a7e f63e
000001d0: fb47 7ebe 5167 60be c3ad 1f3e 7a32 a3bc
000001e0: 2dbf b5be a14b d73e fc0d 88bd ee2b fabe
000001f0: 2cb3 933e 448a 8d3e 46c7 d33d 4579 c8be
00000200: 0814 f5be 3af3 a7bd 63f9 4abd dce4 74be
00000210: 65ab 963e 8085 09be b1f4 b43e 4265 36be
00000220: 191c f0bd 4a57 413e 504e 15be e95e 64be
00000230: 5156 113e 3439 afbe dd6a c9bd 7e74 013e
00000240: fc31 f73d 608d 60bd de4b d73e 078a 33be
00000250: ce12 bb3e 0481 f73c b834 323d 2dea a4be
00000260: 8f0d efbe 7108 d63d 3c24 eebd fe99 7ebe
00000270: 06c6 883d 66e5 50be b4ef 5cbc b15b b6bc
00000280: 93c4 813c 4dc1 42bd 5441 5c3d 4bff 86bc
00000290: ca77 bd3e 1167 9cbe fb09 a73d 81ae f63d
000002a0: 7694 b3be 09cf 61bd 801b 583e 3ed2 7ebd
000002b0: 0d9b 873e 8ac8 5cbe 63ce 8ebe 9c48 793e
000002c0: c3c6 fdbd a30b eabd e63b a43e 928f 58bc
000002d0: b9fb 9e3d fe7e 183e 45ab 793e 6cb2 11be
000002e0: cc7e bdbe c962 0abd 696d b1bd 0da0 93be
000002f0: f709 87be 47f4 c03d 4642 05be d153 9e3d
00000300: d27d 973d 3f39 1ebe d35a 903e 3e31 98be
00000310: 3d55 a13c 92e0 ac3c a5a9 8d3e c66d 13be
00000320: 7ac8 cebd 5042 29bc 9eb4 a3be c2ac 4a3e
00000330: 5bd2 f0bd fd02 66bd 8a1a aabd 9c2d 9b3c
00000340: 3b85 1abd 9c35 c7bb 91ce b43e 9195 06be
00000350: b3f7 39be a9e9 963e 0cbb 0e3e 1df0 dabe
00000360: 889c 43be 9ba4 6abe 87e0 b73d bc7e 65be
00000370: c183 273e 616a 513e f82c c8be 47c2 87be
00000380: eb1a cc3e 5049 b7be 41ae 6dbe 0e68 5fbd
00000390: e3e8 a3be 46ce 38be e17f 8f3d e43a 5b3e
000003a0: be25 e83c 43c4 31be fb30 6c3e 5fc0 c83e
000003b0: b998 6cbc 086e 903e 7793 3fbe b19c 363d
000003c0: a7a6 efbe a690 c1be 42e5 ea3c 7ec1 11be
000003d0: c8f7 eabd 5a62 4e3c 4199 18be 6601 5dbe
000003e0: 67fe 85bd 06b4 433d d3ad cfbd 1716 90bd
000003f0: 2e4a b1bd 78d0 ce3d b770 c53d c1fa f13c

conv1.bias f4 [32]
-0.022586547 -0.011064489 0.013057299 0.04863691 -0.32152003 0.3394933 -0.14631137 -0.36022785
-0.0062000435 -0.39265233 0.24013503 -0.59742415 -0.017081046 -0.0024275852 -0.37522918 -0.4000576
0.0071625016 0.2783052 0.019855635 -0.007830098 -0.45856157 0.05242331 -0.16032374 -0.01528978
-0.27944788 -0.5916619 -0.026811175 -0.48015106 -0.5134681 -0.0040058936 -0.009257913 -0.007310157
00000000: 6c07 b9bc d547 35bc 48ee 553c 7f37 473d
00000010: 469e a4be 11d2 ad3e a6d2 15be c96f b8be
00000020: bc29 cbbb ba09 c9be f5e5 753e caf0 18bf
00000030: 8ded 8bbc 1f18 1fbb 0a1e c0be 5ad4 ccbe
00000040: 6bb3 ea3b 057e 8e3e 49a8 a23c d049 00bc
00000050: 95c8 eabe d3b9 563d e82b 24be fc81 7abc
00000060: cb13 8fbe 2777 17bf 1ca3 dbbc 5cd6 f5be
00000070: a572 03bf df43 83bb 80ae 17bc 0b8a efbb

conv2.weight f4 [64, 32, 3, 3]
0.038221847 0.11555963 -0.034127913 -0.100528575 -0.13850562 -0.011607637 -0.09059593 -0.10328695
0.049719024 0.06406264 -0.0042358106 -0.08092458 0.11348095 0.116323926 -0.038558025 0.070639
-0.058070768 0.035853792 -0.021190252 -0.043925922 0.1124926 0.018492235 -0.045935106 0.06682158
-0.08303772 -0.111180276 -0.09075972 0.025316881 -0.013857592 -0.08711824 -0.060315933 0.02306311
0.019480709 -0.023377085 -0.019566882 0.035498876 0.06765888 -0.058203757 -0.04417906 0.17080215
0.0406941 0.041180614 0.022975445 -0.0150647815 0.082320966 0.086059704 0.046424672 -0.027590096
0.02465849 -0.03076346 -0.031281997 -0.0042720265 0.008997599 -0.07143891 0.062804215 -0.019085746
-0.16475789 -0.12143026 -0.023635622 0.009617134 0.037263583 -0.048234843 -0.033393934 -0.022512112
-0.27926028 0.041107133 0.14834628 -0.09899926 0.029965632 0.001085966 -0.07816799 0.10857595
0.053534996 -0.0187178 0.014432211 0.0161453 0.06517177 0.098910235 -0.056750637 -0.113750264
0.08569479 0.026223514 0.013957133 -0.016406422 0.06553757 0.08084113 -0.048678283 0.000695985
-0.028875569 -0.012839972 0.017455388 -0.018002862 -0.024735536 -0.05197167 0.04796351 0.047819078
0.005974828 -0.0048110425 -0.060899794 -0.0760805 -0.14083098 -0.15403761 0.03579467 -0.055965032
-0.032699633 0.035339165 -0.02810188 -0.03596081 0.05774262 0.031203654 -0.041953567 0.097653076
0.1219759 -0.020479636 -0.048230458 0.07084199 -0.07231444 -0.01331316 0.048158344 -0.008139544
0.0032733125 0.055899903 0.030321848 0.03314179 0.06544822 -0.07101107 -0.07870687 0.031420182
-0.037784494 -0.039475165 -0.03354798 -0.07274056 -0.014712893 0.054170046 0.124578804 0.08749777
-0.064484455 -0.014253223 0.076084524 0.023580719 -0.08064793 0.054720566 -0.09744859 0.047845595
-0.02750623 -0.13881311 0.026628068 0.04077904 0.049411505 0.11710961 -0.059033725 -0.07663479
0.051172845 -0.0061021065 0.0726798 -0.043009397 -0.0012966779 0.040606268 -0.04041981 -0.02386594
-0.026768293 -0.026423216 0.055287287 -0.026174922 -0.03551187 0.051984638 -0.067005925 -0.040377636
-0.0062711956 -0.13464542 -0.017970486 -0.070098065 -0.024574358 -0.079048 0.11833483 0.0063465047
-0.16830072 -0.025429338 0.06172706 -0.14331439 0.094921164 -0.041749697 -0.055724207 0.11064244
-0.07121987 0.009852577 0.022666583 -0.18471715 0.07367291 0.06719183 -0.07343705 0.033966392
0.05303442 -0.0055108527 0.017242875 0.018614704 -0.140211 0.02418266 0.05047614 -0.017471792
-0.07669322 0.033193335 0.018944774 -0.040445216 0.015569959 -0.022364914 0.05448784 -0.111036494
0.20438187 0.06643838 -0.062115777 0.038823023 -0.018041985 -0.038569488 0.06254291 -0.085513115
0.012817726 0.009979682 -0.0159125 -0.007315331 -0.09122526 -0.07885129 0.03349223 -0.07617095
-0.015619363 0.02188514 -0.052294604 -0.053201165 0.075818956 -0.057913706 0.008763459 0.04376757
-0.004134529 -0.0069735395 -0.004562432 -0.090335764 -0.07175372 -0.09810831 -0.01406792 0.10835277
-0.16048115 -0.19653207 -0.0133583695 0.087583184 -0.058042612 0.031002413 0.094367154 -0.054503236
-0.09109932 0.09934882 -0.09214194 0.031729966 -0.0021970666 -0.0009239223 -0.044157792 -0.0018208637
00000000: 838e 1c3d 87aa ec3d b6c9 0bbd ede1 cdbd
00000010: 6bd4 0dbe f52d 3ebc 5c8a b9bd 1c88 d3bd
00000020: 2da6 4b3d 4633 833d 8ecc 8abb c9bb a5bd
00000030: b368 e83d 3d3b ee3d 05ef 1dbd 2eab 903d
00000040: 9ddb 6dbd 6ddb 123d 2e97 adbc abeb 33bd
00000050: 8562 e63d 077d 973c 7326 3cbd c1d9 883d
00000060: ae0f aabd 7cb2 e3bd 3be0 b9bd 5965 cf3c
00000070: f40a 63bc 0c6b b2bd d70d 77bd d9ee bc3c
00000080: 0296 9f3c 4d81 bfbc ba4a a0bc 4567 113d
00000090: bd90 8a3d 1067 6ebd 1af5 34bd c2e6 2e3e
000000a0: dbae 263d 01ad 283d 0037 bc3c 46d2 76bc
000000b0: e597 a83d 1240 b03d cc27 3e3d a004 e2bc
000000c0: 9a00 ca3c a703 fcbc 8d21 00bd 5bfc 8bbb
000000d0: aa6a 133c 904e 92bd 7f9f 803d b659 9cbc
000000e0: 4bb6 28be 6eb0 f8bd 7e9f c1bc 2f91 1d3c
000000f0: b3a1 183d e691 45bd 14c8 08bd 526b b8bc
00000100: 34fb 8ebe f45f 283d 16e8 173e 20c0 cabd
00000110: 7c7a f53c f956 8e3a 8a16 a0bd 115d de3d
00000120: 8347 5b3d 1256 99bc 1575 6c3c 2643 843c
00000130: c778 853d 7391 ca3d 5b73 68bd e6f5 e8bd
00000140: c080 af3d b2d2 d63c 75ac 643c c366 86bc
00000150: 9038 863d 0990 a53d e162 47bd c372 363a
00000160: 758c ecbc bf5e 52bc 9afe 8e3c bd7a 93bc
00000170: 2ea2 cabc 3fe0 54bd 6375 443d f0dd 433d
00000180: 7dc8 c33b f3a5 9dbb 1072 79bd 18d0 9bbd
00000190: ff35 10be 09bc 1dbe 6f9d 123d 973b 65bd
000001a0: 0df0 05bd cdbf 103d ea35 e6bc a44b 13bd
000001b0: 8783 6c3d ce9e ff3c 81d7 2bbd 56fe c73d
000001c0: 80ce f93d e9c4 a7bc 4d8d 45bd 9b15 913d
000001d0: 9819 94bd 711f 5abc af41 453d b95b 05bc
000001e0: 1285 563b 4cf7 643d 8665 f83c b0bf 073d
000001f0: b709 863d 406e 91bd 1131 a1bd 73b2 003d
00000200: eac3 1abd b6b0 21bd 9b69 09bd 01f9 94bd
00000210: 590e 71bc 69e1 5d3d 2c23 ff3d 0832 b33d
00000220: 6d10 84bd 5a86 69bc 34d2 9b3d 5a2c c13c
00000230: be2a a5bd ac22 603d 2093 c7bd bef9 433d
00000240: bf54 e1bc 0625 0ebe 1b23 da3c ec07 273d
00000250: b863 4a3d 2ad7 ef3d 59cd 71bd b3f2 9cbd
00000260: 9e9a 513d 2ef4 c7bb 26d9 943d 9f2a 30bd
00000270: 4af5 a9ba c252 263d 3e8f 25bd 8182 c3bc
00000280: 2e49 dbbc 8075 d8bc ec74 623d ca6c d6bc
00000290: e574 11bd d8ed 543d 673a 89bd 0563 25bd
000002a0: 9a7e cdbb 7de0 09be d736 93bc 938f 8fbd
000002b0: 2a50 c9bc ebe3 a1bd 8859 f23d 57f6 cf3b
000002c0: 0657 2cbe 3051 d0bc 83d5 7c3d 02c1 12be
000002d0: 0766 c23d bb01 2bbd 113f 64bd 8198 e23d
000002e0: b9db 91bd b46c 213c 45af b93c 7e26 3dbe
000002f0: d3e1 963d df9b 893d 2a66 96bd 5820 0b3d
00000300: 9f3a 593d 6294 b4bb ee40 8d3c dd7d 983c
00000310: 7993 0fbe b71a c63c 12c0 4e3d 0121 8fbc
00000320: 5611 9dbd bcf5 073d 1232 9b3c e2a9 25bd
00000330: 2419 7f3c a036 b7bc a42e 5f3d 1a67 e3bd
00000340: 7b49 513e d810 883d 1d6d 7ebd e404 1f3d
00000350: c9cc 93bc 0afb 1dbd 7f16 803d 8021 afbd
00000360: 7001 523c d281 233c ee5a 82bc 72b5 efbb
00000370: 4fd4 babd c97c a1bd 262f 093d 84ff 9bbd
00000380: 5be8 7fbc 7748 b33c de32 56bd 77e9 59bd
00000390: f846 9b3d ec36 6dbd 9c94 0f3c a045 333d
000003a0: f17a 87bb 4a82 e4bb 7480 95bb f501 b9bd
000003b0: 9df3 92bd 02ed c8bd 227d 66bc 0fe8 dd3d
000003c0: 2c55 24be b43f 49be 10dd 5abc d05e b33d
000003d0: 17be 6dbd c6f8 fd3c 9143 c13d c93e 5fbd
000003e0: 4892 babd 6577 cb3d eab4 bcbd 48f7 013d
000003f0: a9fc 0fbb 6033 72ba cdde 34bd 0caa eeba

conv2.bias f4 [64]
0.029526118 0.00073063246 -0.003526306 0.07615193 0.07936402 0.16305785 0.067141615 0.036315814
-0.038571402 0.0045913598 -0.021144088 0.082159236 -0.073251896 -0.09044631 -0.07694319 0.1014584
-0.0947068 -0.021025378 -0.12928176 -0.09335191 0.0692379 -0.09155425 -0.063396245 -0.013035385
0.046055965 0.07360918 -0.029021442 -0.00925113 -0.04325942 0.015515584 0.002145984 0.07395177
-0.062343296 0.02740589 0.047257144 0.09246823 0.028925158 -0.041173894 -0.12708011 0.024849365
0.11838128 0.036257952 -0.016138496 0.018493913 -0.0137927625 0.111210704 0.012536993 0.12599741
-0.06310332 0.07422225 0.005881095 -0.050153166 -0.09949719 -0.085073635 0.19229454 0.0045758337
0.082331546 -0.042442765 0.029757699 -0.1114077 -0.094170764 -0.024875974 -0.031017821 0.002845363
00000000: c2e0 f13c ea87 3f3a 9919 67bb 8bf5 9b3d
00000010: 9a89 a23d a3f8 263e 8b81 893d e4bf 143d
00000020: 0cfd 1dbd 1e73 963b 5e36 adbc 1a43 a83d
00000030: 1705 96bd ea3b b9bd 6494 9dbd 6cc9 cf3d
00000040: a4f5 c1bd 6a3d acbc 7062 04be 492f bfbd
00000050: 9acc 8d3d cb80 bbbd e4d5 81bd 5e92 55bc
00000060: 2ea5 3c3d 69c0 963d 60be edbc 0d92 17bc
00000070: ca30 31bd 1335 7e3c a3a3 0c3b 0774 973d
00000080: af5b 7fbd 5182 e03c b590 413d fc5f bd3d
00000090: 74f4 ec3c f5a5 28bd 4a21 02be e590 cb3c
000000a0: e271 f23d 3883 143d e134 84bc 8c80 973c
000000b0: 0afb 61bc 70c2 e33d f667 4d3c 7705 013e
000000c0: 503c 81bd d601 983d 33b6 c03b 686d 4dbd
000000d0: 2fc5 cbbd 163b aebd dce8 443e e0f0 953b
000000e0: 719d a83d 77d8 2dbd 6bc6 f33c b829 e4bd
000000f0: 9adc c0bd b3c8 cbbc 1619 febc 4579 3a3b

fc1.weight f4 [128, 1600]
-0.011576361 -0.026842507 -0.009540213 -0.025169829 0.013645285 -0.026670944 -0.013438225 0.007567049
-0.023676828 -0.023166137 -0.022993185 -0.01942946 0.0031080216 0.0026249255 -0.015109838 0.011921777
-0.004801116 -0.001984069 0.007134864 -0.0073425965 0.013201447 0.0068820077 -0.025975337 -0.0031862622
-0.024906775 -0.023281679 -0.010008273 0.0027241013 0.01227324 -0.0018540769 0.0058174995 -0.009668016
-0.004230332 0.01563103 0.014675136 0.016438633 0.009760685 -0.031586092 0.0038807967 -0.011683669
-0.024374139 0.014763892 0.009265666 0.014740751 -0.0214498 0.012721123 0.014289658 -0.0244913
0.0063166227 -0.00052490464 -0.009741152 -0.01006757 -0.00627362 -0.02956103 0.0045433906 0.022983411
-0.010580889 -0.0077942717 0.008471975 -0.004858155 0.013862965 -0.003632462 -0.012112173 -0.027687984
-0.013931159 0.001415551 -0.017985033 0.0022503892 3.623911e-05 -0.009066953 0.0053277924 -0.004652713
-0.028772675 -0.0014330186 0.009851535 -0.01239843 -0.025892407 -0.011019291 -0.0249193 -0.02339817
-0.017743804 -0.018159797 0.015183014 -0.031023368 -0.02179183 -0.022344733 0.009813213 -0.03007619
-0.021601409 -0.020181816 -0.022726214 -0.009319292 -0.026019456 0.002509529 -0.0025659672 -0.010691969
-0.011598046 -0.016329175 -0.0024613573 -0.027766205 0.018554702 0.016572095 -0.0017619223 -0.007849893
-0.019271595 -0.028817113 0.006879943 -0.0031994535 -0.01443618 -0.033020966 -0.010714774 -0.018589647
-0.020724602 0.0035671373 0.016233362 -0.025332516 -0.012028881 -0.013633342 -0.020127354 -0.009646483
-0.012520253 -0.027178895 -0.00591893 -0.011648838 -0.024453875 0.0029957406 -0.0070974175 0.016241029
0.00803295 0.00078132725 0.0084814215 0.0008900524 0.012261914 -0.020927163 0.0065179956 0.014170197
-0.021082146 0.0009358722 0.015336317 -0.02631755 -0.01300467 0.015068344 -0.02089045 0.013219745
0.014719073 -0.011171628 -0.0040524425 -0.001593369 0.011937388 -0.0003175968 -0.015698515 -0.025967004
-0.0073320917 0.0018463904 -0.033140965 -0.01255204 -0.01209954 -0.011977698 -0.013843572 -0.023714079
0.0043501286 -0.0076753343 -0.0099725565 -0.0148077775 0.01243521 0.0028837197 -0.010452724 -0.0036361623
-0.010669003 -0.01314566 0.010490635 -0.03204157 0.011261868 -0.021847032 -0.019769007 -0.019382158
-0.021483941 -0.011887628 0.011887098 0.022218531 -0.014306835 -0.0023000427 -0.024100272 -0.016833857
-0.00123927 0.016507426 -0.0074082017 -0.0073226597 -0.021420075 0.014571233 0.011281839 0.006239105
-0.007296186 -0.023572067 0.006582504 0.0057393275 -0.0075176805 0.0030431151 0.014360631 0.0005007889
0.00986326 -0.01790435 -0.026675336 -0.01398474 0.015507452 -0.009109531 -0.006073361 -0.01305568
0.013024667 -0.022987327 -0.028596036 0.021496044 -0.012028584 -0.0075863497 -0.004692564 -0.011105797
-0.009175291 -0.019718343 0.023111628 3.2894313e-06 -0.016764307 0.017246576 0.009445107 -0.014106524
0.024350448 0.0216552 -0.012471552 -0.029804265 -0.026240656 0.008976659 -0.026872851 -0.0033543631
-0.027371373 -0.02050871 -0.003833113 -0.011488187 -0.013808917 0.010541886 0.0090531055 -0.0030566526
0.013265734 -0.026005287 -0.007540932 0.015753228 -0.0016501655 -0.026538914 -0.0094449585 0.024143385
-0.0053654937 0.007723671 0.006811576 -0.016028285 -0.031149264 -0.022942167 0.008801223 -0.021961547
00000000: c7aa 3dbc d1e4 dbbc 8e4e 1cbc f530 cebc
00000010: 7990 5f3c 067d dabc 002c 5cbc 02f5 f73b
00000020: e8f5 c1bc e9c6 bdbc 345c bcbc 882a 9fbc
00000030: f3af 4b3b f106 2c3b 418f 77bc 8f53 433c
00000040: ae52 9dbb 2707 02bb 94cb e93b 2a9a f0bb
00000050: e24a 583c 7782 e13b 3bca d4bc 9cd0 50bb
00000060: 4b09 ccbc 38b9 bebc bdf9 23bc d686 323b
00000070: b315 493c 7f04 f3ba b9a0 be3b 9966 1ebc
00000080: 999e 8abb a50c 803c fb6f 703c 50aa 863c
00000090: 48eb 1f3c 6b60 01bd f754 7e3b dc6c 3fbc
000000a0: 46ac c7bc 40e4 713c 05cf 173c 3183 713c
000000b0: 7eb7 afbc 426c 503c 2b1f 6a3c fba1 c8bc
000000c0: acfb ce3b c199 09ba 5a99 1fbc 73f2 24bc
000000d0: f092 cdbb f929 f2bc b9e0 943b b547 bc3c
000000e0: 775b 2dbc 1767 ffbb 0ace 0a3c 2831 9fbb
000000f0: 7d21 633c 990e 6ebb 2372 46bc e9d1 e2bc
00000100: 843f 64bc 038a b93a 5955 93bc 447b 133b
00000110: 73ff 1738 8f8d 14bc c394 ae3b c975 98bb
00000120: acb4 ebbc 20d4 bbba 5568 213c c922 4bbc
00000130: 501c d4bc 428a 34bc 8f23 ccbc 85ad bfbc
00000140: 745b 91bc dbc3 94bc 2dc2 783c b824 febc
00000150: c884 b2bc 4d0c b7bc 99c7 203c 5862 f6bc
00000160: 70f5 b0bc 5654 a5bc 532c babc f2af 18bc
00000170: c126 d5bc e976 243b c929 28bb 5e2d 2fbc
00000180: bb05 3ebc c3c4 85bc b94e 21bb f475 e3bc
00000190: 0800 983c 34c2 873c 4df0 e6ba d69c 00bc
000001a0: 77df 9dbc de11 ecbc 2571 e13b ecad 51bb
000001b0: ba85 6cbc fe40 07bd 058d 2fbc 5149 98bc
000001c0: a4c6 a9bc a2c6 693b d4fb 843c 2386 cfbc
000001d0: c914 45bc 625e 5fbc 1fe2 a4bc 480c 1ebc
000001e0: bf21 4dbc 46a6 debc 95f3 c1bb c5da 3ebc
000001f0: 7e53 c8bc 3054 443b 7491 e8bb e80b 853c
00000200: a29c 033c fcd1 4c3a a9f5 0a3c 6852 693a
00000210: 32e6 483c 716f abbc e994 d53b 1d2a 683c
00000220: 77b4 acbc 5255 753a 2d45 7b3c e797 d7bc
00000230: 8a11 55bc 37e1 763c 7322 abbc a197 583c
00000240: 4428 713c 3409 37bc 5aca 84bb 97d8 d0ba
00000250: 0995 433c 1f83 a6b9 2c9a 80bc c1b8 d4bc
00000260: 0b42 f0bb 9502 f23a d2be 07bd 12a7 4dbc
00000270: 263d 46bc 1b3e 44bc 26d0 62bc 0744 c2bc
00000280: 868b 8e3b 5f81 fbbb ef63 23bc 529c 72bc
00000290: 0dbd 4b3c cafc 3c3b e741 2bbc ae4c 6ebb
000002a0: 0bcd 2ebc e560 57bc eae0 2b3c 053e 03bd
000002b0: b383 383c 8cf8 b2bc 9df2 a1bc 55c7 9ebc
000002c0: 17ff afbc 53c4 42bc 1ac2 423c a303 b63c
000002d0: 3767 6abc 50bc 16bb ef6d c5bc 28e7 89bc
000002e0: 006f a2ba 953a 873c 80c0 f2bb ecf2 efbb
000002f0: 2779 afbc 2ebc 6e3c 76d7 383c 6871 cc3b
00000300: d814 efbb 351a c1bc 0cb2 d73b f810 bc3b
00000310: e056 f6bb 006f 473b da48 6b3c 6047 033a
00000320: 8399 213c 25ac 92bc 3c86 dabc 4020 65bc
00000330: f812 7e3c 2440 15bc 0b03 c7bb 7ee7 55bc
00000340: 6a65 553c eb4f bcbc 3c42 eabc 7918 b03c
00000350: 8a13 45bc ea96 f8bb 14c4 99bb 17f5 35bc
00000360: f653 16bc 5d88 a1bc 9954 bd3c 00c0 5c36
00000370: 4d55 89bc b148 8d3c a6bf 1a3c 0d1f 67bc
00000380: 977a c73c 3f66 b13c 7b55 4cbc 1328 f4bc
00000390: a5f6 d6bc d612 133c 7424 dcbc e0d4 5bbb
000003a0: ee39 e0bc e201 a8bc f734 7bbb f338 3cbc
000003b0: cc3e 62bc e0b7 2c3c 7a53 143c 1f52 48bb
000003c0: 8558 593c 0a09 d5bc ec19 f7bb ea0c 813c
000003d0: 5e4a d8ba 2368 d9bc 07bf 1abc 59c8 c53c
000003e0: 06d1 afbb d916 fd3b a433 df3b c04d 83bc
000003f0: be2c ffbc 36f1 bbbc 0133 103c b4e8 b3bc

fc1.bias f4 [128]
-0.012650967 -0.021111025 0.017766342 0.0073908255 0.06631596 0.009238134 -0.018003298 -0.024978915
-0.009627653 -0.029531535 0.0108784195 -0.02135503 -0.0010059113 0.029474976 0.04509525 0.0963788
-0.0104369065 -0.03655371 0.05657876 0.033468578 0.026387494 0.006914664 -0.024879884 -0.010794185
-0.021564834 0.064352974 -0.055850357 0.048668846 0.034825634 0.047541235 0.038272977 -0.071925566
-0.011477873 -0.027649142 -0.015097305 0.008910726 0.047672316 -0.029809628 0.053238876 0.0065152114
-0.044452947 -0.008566852 -0.009737701 -0.044022504 0.09827494 -0.043996904 -0.038064886 -0.013896239
-0.030027354 0.04997975 -0.019775363 0.005532086 0.049462073 0.023040699 -0.0029875687 0.024218615
0.006962303 -0.047037307 0.011955886 -0.0041677793 0.0570637 -0.026843434 -0.06242984 0.08069165
0.0076188124 -0.019097246 -0.02252126 0.00010913452 -0.026891338 -0.04740234 0.043327317 0.0100952685
-0.038554974 -0.010140974 0.066915505 -0.020581838 0.0042088456 -0.012534114 0.002771651 0.061192162
0.058966007 0.017621407 -0.019354092 0.014771343 0.04495797 -0.017366612 0.062182974 -0.020087194
0.07527688 -0.027501265 0.04926749 0.0043965504 -0.000319694 0.012391193 -0.003054244 0.039701898
0.046029285 0.0005989427 0.045440946 -0.031720188 0.010574238 -0.02799748 -0.020346113 0.087483086
0.037205383 0.060569152 -0.017351745 -0.10606008 0.005051424 0.03502886 -0.02176619 -0.029284382
-0.007292066 0.08901984 0.016750006 -0.028521372 -0.013600783 0.027340958 0.031259812 0.07536745
0.022730766 0.03468773 0.021461278 0.023451155 -0.0026115538 0.069888055 0.0404424 -0.019676777
00000000: 0046 4fbc 07f1 acbc b88a 913c bd2e f23b
00000010: a9d0 873d 8b5b 173c a77b 93bc 95a0 ccbc
00000020: 4ebd 1dbc 1eec f1bc 663b 323c bef0 aebc
00000030: c8d8 83ba 8175 f13c ccb5 383d 4062 c53d
00000040: 8fff 2abc 58b9 15bd 21bf 673d 5916 093d
00000050: 962a d83c 6894 e23b e6d0 cbbc 18da 30bc
00000060: bca8 b0bc 7ecb 833d 58c3 64bd fc58 473d
00000070: 53a5 0e3d 99ba 423d 20c4 1c3d b64d 93bd
00000080: b00d 3cbc 7480 e2bc b05a 77bc 4bfe 113c
00000090: 0c44 433d 5233 f4bc 0211 5a3d 8e7d d53b
000000a0: 4b14 36bd fb5b 0cbc e18a 1fbc f150 34bd
000000b0: 5f44 c93d 1936 34bd ede9 1bbd 0dad 63bc
000000c0: edfb f5bc 91b7 4c3d f1ff a1bc 8046 b53b
000000d0: be98 4a3d d9bf bc3c 16cb 43bb 1e66 c63c
000000e0: 0824 e43b 31aa 40bd 9fe2 433c de91 88bb
000000f0: a0bb 693d c3e6 dbbc 6fb6 7fbd aa41 a53d
00000100: 3ba7 f93b d471 9cbc 817e b8bc 26df e438
00000110: 394b dcbc f528 42bd fc77 313d a066 253c
00000120: d2eb 1dbd 5426 26bc ff0a 893d 3e9b a8bc
00000130: 5bea 893b e25b 4dbc 96a4 353b a2a4 7a3d
00000140: 5786 713d c55a 903c 798c 9ebc 8103 723c
00000150: d925 383d 6d44 8ebc 93b3 7e3d e68d a4bc
00000160: c42a 9a3d 554a e1bc b5cc 493d f010 903b
00000170: 9a9c a7b9 6e04 4b3c b629 48bb 759e 223d
00000180: 3489 3c3d 5d02 1d3a 4920 3a3d 07ed 01bd
00000190: 923f 2d3c f95a e5bc e4ac a6bc 552a b33d
000001a0: ac64 183d 5c17 783d 3f25 8ebc 0736 d9bd
000001b0: 6a86 a53b 6c7a 0f3d 024f b2bc cde5 efbc
000001c0: 48f2 eebb 0950 b63d 4f37 893c a7a5 e9bc
000001d0: d2d5 5ebc 25fa df3c 4a0a 003d 405a 9a3d
000001e0: df35 ba3c b914 0e3d 90cf af3c a31c c03c
000001f0: 9a26 2bbb 7821 8f3d eea6 253d 3131 a1bc

fc2.weight f4 [64, 128]
-0.053171832 -0.008673086 0.0018993923 -0.11059802 0.015160753 0.11103093 -0.13403557 0.04362971
-0.0031533 0.07237106 0.0067336806 -0.029392868 -0.08698384 -0.08710218 0.022927811 0.14758855
-0.15652075 -0.009552168 0.07827425 0.11063457 -0.08507341 -0.0974707 -0.020949967 0.056799628
0.020390652 -0.029803788 -0.07641463 -0.15245344 -0.12503755 0.027200276 -0.012709279 0.04147814
-0.017158002 0.055195373 0.084066465 -0.0025776783 -0.13789967 -0.06413289 -0.056074284 0.054692723
0.026378911 0.050753362 -0.08412222 0.05023922 -0.07326423 0.049863894 -0.0050899247 -0.0053950176
-0.0553563 0.04810602 -0.01876419 -0.25823405 -0.079093434 0.105335265 0.12041162 -0.07216925
0.050287373 0.09119856 -0.081155 0.07860605 -0.106754564 -0.05813259 -0.01620132 -0.0053843427
-0.025531612 0.014173426 -0.014391212 0.06999169 0.012108959 0.085843384 -0.20815606 0.01568897
0.14552322 0.0031725795 -0.10148422 0.020577505 0.035680678 0.026872639 -0.0027554855 0.044048093
-0.07172705 -0.08616012 -0.030470338 -0.10967675 0.035491608 -0.18304966 0.022324441 -0.06594074
0.13452224 0.0017489791 -0.08724955 -0.047784355 -0.011781219 0.12682393 -0.047936536 -0.030916914
0.05883582 -0.09121548 0.02762918 0.030689267 0.015417598 -0.0840051 0.057848953 -0.1236777
0.056990154 -0.051595785 -0.02135466 0.08058472 -0.039706122 -0.14682023 0.04846155 -0.012674323
-0.005049005 -0.18682317 0.04824928 0.06594165 -0.07531023 0.15444575 -0.05981681 0.009906716
0.040371846 -0.11319594 -0.0044875103 -0.04203013 0.114623874 -0.031174028 -0.027012557 -0.025694564
0.059365995 0.038264986 -0.070003405 -0.0749205 0.089685686 -0.12663795 0.06296912 0.1763442
-0.094092794 0.079311505 0.0458388 0.0012062521 0.08419138 -0.038964074 0.05254323 0.033253975
0.06593708 -0.040821183 0.024808591 0.09387868 0.12158248 0.09634415 -0.05475544 0.06885998
-0.02206887 0.040808316 0.09575631 0.07251355 0.031163333 0.083424255 0.022077495 0.07462486
0.089775994 0.22248194 -0.07784334 -0.07069039 -0.04896037 0.08837524 -0.06473079 0.027014503
0.0047904495 -0.0027712956 -0.056067847 0.17089267 0.06604032 0.07335418 0.0025493524 -0.03868991
-0.04945705 -0.048220087 0.05882941 -0.095533855 -0.028907705 -0.053798996 -0.067322746 -0.06355423
-0.15137401 -0.07554356 0.050157186 -0.06363923 0.044330236 0.05267291 -0.017296154 0.00058390293
-0.068047635 -0.025645008 0.012843969 0.0741217 -0.05753762 0.054960314 -0.073502526 -0.08248715
-0.09204948 -0.037149906 0.059232913 -0.04965159 -0.07368753 0.0813693 -0.042207003 0.12432078
-0.06178767 0.030145302 -0.0800345 0.0076147113 -0.0419908 -0.003509231 -0.016571209 0.051794216
0.025760083 0.023636157 0.03622169 -0.074193664 -0.07908407 -0.1346206 -0.005496427 0.15188439
0.07002903 0.05159352 0.029645627 -0.04537965 0.07722181 -0.005767098 -0.038653553 0.0597567
0.10323715 -0.035599094 0.071429715 0.007942734 0.026528994 -0.030586261 -0.04361909 0.14472952
-0.06923719 -0.09541351 -0.07875871 0.0766047 -0.03711205 -0.025027018 -0.01848869 -0.10804594
0.114087954 -0.1400496 0.11191438 0.15242141 -0.107799456 -0.05413227 0.08353859 -0.02215262
00000000: b5ca 59bd 8f19 0ebc 08f5 f83a 3781 e2bd
00000010: cf64 783c 2f64 e33d 9f40 09be 11b5 323d
00000020: 98a7 4ebb 4737 943d 35a6 dc3b 50c9 f0bc
00000030: 9524 b2bd a162 b2bd 1bd3 bb3c 7421 173e
00000040: fa46 20be b280 1cbc 404e a03d 6194 e23d
00000050: f83a aebd b89e c7bd 449f abbc baa6 683d
00000060: 4c0a a73c 1327 f4bc 467f 9cbd c11c 1cbe
00000070: d809 00be 1dd3 de3c 943a 50bc fbe4 293d
00000080: f08e 8cbc 8b14 623d 0a2b ac3d 44ee 28bb
00000090: 9235 0dbe 1b58 83bd 26ae 65bd 7a05 603d
000000a0: 9618 d83c c2e2 4f3d 4548 acbd a4c7 4d3d
000000b0: 8e0b 96bd 153e 4c3d 62c9 a6bb b0c8 b0bb
000000c0: 4abd 62bd d10a 453d 5cb7 99bc 4137 84be
000000d0: bdfb a1bd 04ba d73d 5e9a f63d 79cd 93bd
000000e0: 22fa 4d3d 50c6 ba3d 9834 a6bd 35fc a03d
000000f0: 23a2 dabd 701c 6ebd a1b8 84bc 246f b0bb
00000100: ac27 d1bc a837 683c 1ec9 6bbc ce57 8f3d
00000110: a864 463c a8ce af3d dd26 55be 2886 803c
00000120: 0a04 153e 0deb 4f3b f5d6 cfbd 2892 a83c
00000130: e725 123d 0224 dc3c 6095 34bb c66b 343d
00000140: a2e5 92bd b874 b0bd ee9c f9bc 349e e0bd
00000150: a65f 113d 5f71 3bbe bfe1 b63c f00b 87bd
00000160: 33c0 093e 003e e53a e4af b2bd 87b9 43bd
00000170: 0406 41bc 22de 013e 1a59 44bd 7845 fdbc
00000180: d4fd 703d 2ecf babd 9756 e23c 0f68 fb3c
00000190: 189a 7c3c de0a acbd 06f3 6c3d bc4a fdbd
000001a0: 826e 693d 1a56 53bd f8ef aebc 9a09 a53d
000001b0: e3a2 22bd 0b58 16be 9e7f 463d f7a7 4fbc
000001c0: 2072 a5bb 934e 3fbe 09a1 453d 6a0c 873d
000001d0: 403c 9abd 0727 1e3e 7902 75bd c74f 223c
000001e0: f35c 253d 46d3 e7bd f70b 93bb c927 2cbd
000001f0: ecbf ea3d ad60 ffbc 7049 ddbc 687d d2bc
00000200: c229 733d bfbb 1c3d f25d 8fbd eb6f 99bd
00000210: 21ad b73d 61ad 01be f4f5 803d 9393 343e
00000220: b9b3 c0bd 126e a23d 77c1 3b3d 1b1b 9e3a
00000230: 886c ac3d cb98 1fbd 9237 573d 5235 083d
00000240: 050a 873d 1d34 27bd 633b cb3c 7743 c03d
00000250: 3c00 f93d 1550 c53d 3e47 60bd 7606 8d3d
00000260: c6c9 b4bc 9f26 273d e21b c43d fc81 943d
00000270: 3f4a ff3c 56da aa3d dddb b43c ebd4 983d
00000280: 7adc b73d 4ed2 633e 546c 9fbd 20c6 90bd
00000290: ab8a 48bd 14fe b43d 9491 84bd 854d dd3c
000002a0: 34f9 9c3b a09e 35bb 66a7 65bd 7dfe 2e3e
000002b0: 2640 873d b73a 963d 0913 273b 5079 1ebd
000002c0: 7a93 4abd 6d82 45bd 1bf7 703d 41a7 c3bd
000002d0: dacf ecbc 565c 5cbd 82e0 89bd b828 82bd
000002e0: ca01 1bbe 95b6 9abd 9f71 4d3d 4955 82bd
000002f0: 9f93 353d 8dbf 573d aab0 8dbc 1011 193a
00000300: 8f5c 8bbd 7b15 d2bc 836f 523c 1ecd 973d
00000310: 91ac 6bbd 111e 613d 7e88 96bd 06ef a8bd
00000320: 7084 bcbd 802a 18bd 369e 723d 775f 4bbd
00000330: 7de9 96bd f3a4 a63d 40e1 2cbd e59b fe3d
00000340: 1115 7dbd 48f3 f63c 21e9 a3bd d484 f93b
00000350: 8cfe 2bbd 20fb 65bb 58c0 87bc 2c26 543d
00000360: cf06 d33c 9da0 c13c 325d 143d d9f2 97bd
00000370: d4f6 a1bd fcd9 09be 5f1b b4bb 9587 1b3e
00000380: 616b 8f3d ba53 533d 63db f23c 03e0 39bd
00000390: 7826 9e3d edf9 bcbb 3053 1ebd 71c3 743d
000003a0: 006e d33d 5bd0 11bd be49 923d 3e22 023c
000003b0: 5553 d93c 0a90 fabc eea9 32bd fa33 143e
000003c0: 3acc 8dbd 2968 c3bd 3f4c a1bd ede2 9c3d
000003d0: ce02 18bd 7605 cdbc 9875 97bc 3147 ddbd
000003e0: f2a6 e93d 2a69 0fbe 5e33 e53d 5c14 1c3e
000003f0: f6c5 dcbd cdb9 5dbd 4816 ab3d 6979 b5bc

fc2.bias f4 [64]
-0.038105387 -0.02808649 0.018845737 0.057470225 0.044611536 -0.08569446 -0.06937019 -0.13254566
0.07496182 -0.01479554 0.045388754 0.14219537 0.007006858 0.016483506 -0.023695199 -0.016601006
0.116254814 -0.06200759 0.06878131 -0.05646244 0.14814848 0.12204613 0.0045410814 0.066183835
-0.04141602 0.035587825 -0.069857955 0.016492557 -0.125335 0.0396729 -0.02691975 0.10876053
0.035956938 -0.024688128 0.08867724 -0.12279711 -0.021481402 0.029757384 0.029867375 0.062356416
0.052428406 0.078386076 -0.10426172 0.0018834419 -0.037745282 -0.042572793 0.15505543 0.07029225
0.1752401 -0.041506775 0.04529613 0.07848945 0.09634345 0.073911816 -0.06379381 -0.027548604
0.016278211 -0.09321814 0.079547085 0.0739279 -0.09022372 -0.104408115 -0.108393565 0.1141446
00000000: 6514 1cbd a415 e6bc 6062 9a3c e665 6b3d
00000010: 96ba 363d 9480 afbd f511 8ebd 0dba 07be
00000020: 9585 993d fe68 72bc 8fe9 393d aa9b 113e
00000030: c999 e53b 6b08 873c 6f1c c2bc d5fe 87bc
00000040: 0117 ee3d acfb 7dbd 37dd 8c3d 2945 67bd
00000050: 3cb4 173e 52f3 f93d 5acd 943b 648b 873d
00000060: d8a3 29bd 8ac4 113d b011 8fbd 661b 873c
00000070: d157 00be 0d80 223d cf86 dcbc d7bd de3d
00000080: 9547 133d c23e cabc 6a9c b53d 0d7d fbbd
00000090: c4f9 afbc c2c5 f33c 6dac f43c 7169 7f3d
000000a0: 2bbf 563d e188 a03d 2b87 d5bd d3dd f63a
000000b0: cc9a 1abd cf60 2ebd dac6 1e3e 62f5 8f3d
000000c0: 2472 333e 0203 2abd 6f88 393d 14bf a03d
000000d0: b74f c53d 145f 973d 54a6 82bd 9cad e1bc
000000e0: e259 853c 27e9 bebd 95e9 a23d 8367 973d
000000f0: 37c7 b8bd ecd3 d5bd 72fd ddbd a5c4 e93d

output.weight f4 [10, 64]
-0.10466911 -0.12765414 -0.0004391132 0.0034729769 0.028645322 0.024610305 0.1231401 0.09366212
-0.074506 0.09367299 0.03527559 0.06673177 -0.12967369 -0.13400842 0.1079586 0.16861674
0.047127474 0.05192585 0.011254598 -0.06856344 0.07041928 -0.09245725 -0.17070484 0.14609423
-0.03372192 -0.109064594 0.029418787 0.053225383 -0.05262751 -0.25479558 -0.10401108 -0.045631807
0.052541826 -0.16524698 0.16148645 -0.08879385 0.1619144 -0.106268406 -0.06181448 -0.16582793
-0.1821652 -0.039015263 -0.19427393 -0.14429522 -0.09681164 0.15665264 -0.23460963 0.08115009
0.02083237 0.12361395 -0.18916722 0.07275361 -0.14780134 -0.08543216 -0.024449134 -0.12614772
0.025029723 -0.13350025 -0.03825653 0.041979216 -0.030575758 -0.05422304 -0.12384044 -0.16965105
0.22489733 -0.040537532 0.11608647 0.1581362 -0.15465368 -0.05926653 -0.22043839 -0.029110072
-0.037349448 -0.3097006 -0.23848657 -0.02990778 0.100232065 -0.056955468 0.12677726 0.07955996
0.12289795 0.051732548 -0.009925419 -0.26167253 -0.23353894 -0.114740655 -0.094351046 -0.23894547
0.11076247 -0.12523286 0.024217464 0.14558367 0.038940668 -0.0060006 -0.022154933 -0.02080458
0.09887319 0.023050811 0.03440179 0.04021544 -0.20432672 -0.050784342 0.15415518 -0.017010283
-0.13373972 -0.1302882 0.12341019 -0.010920611 0.26827246 0.07972594 0.028644329 -0.12424032
-0.060443085 0.15228452 -0.15968323 -0.21374062 0.11222577 0.09119374 0.014098855 -0.10841322
0.014432328 0.09959292 -0.041251816 0.13249183 0.040800977 0.025743604 0.021035211 -0.26152816
0.00020091355 -0.20635661 0.043105397 -0.095394306 -0.05599668 -0.020576082 -0.024522731 0.09759194
0.15651146 0.074717745 -0.052439924 0.07286574 0.11824742 -0.073345385 -0.08146021 0.06873695
-0.23997836 -0.10388694 -0.12742263 -0.042009436 -0.006120125 0.002497731 -0.039695557 0.088727094
-0.06279918 -0.10283912 0.02624493 0.0928064 -0.050521035 0.008598274 -0.01287843 -0.083964564
0.036667407 -0.056532275 -0.0023261206 0.045964208 -0.013439312 0.14209363 -0.051946882 -0.18070683
-0.05861193 0.115233935 0.0997963 -0.2457906 0.09167967 -0.13270007 0.08590581 0.15567535
0.061684355 0.09427463 -0.13107988 -0.053743184 -0.057251666 -0.034877636 0.057065822 -0.036873635
0.034808572 -0.060727682 0.11907648 -0.13163444 -0.010073635 -0.114064045 0.046521083 0.14541848
-0.13728657 -0.11587354 -0.14749466 -0.14503373 -0.24180444 0.052570432 -0.07484488 0.013713063
0.10829303 0.11343899 -0.08427678 0.084981486 -0.062748894 -0.11481227 0.07974474 0.007554999
0.09940929 0.026379805 0.06735399 -0.03139752 -0.0006941764 -0.08882853 0.018392168 -0.05770941
0.0040633604 0.1385561 -0.027875144 0.057563115 0.08630557 0.06368849 -0.095932916 0.017814036
-0.0587209 0.17990781 0.13175365 -0.021437736 -0.07128706 0.11714493 0.10999641 -0.28351402
-0.047692027 -0.20397818 -0.06152031 -0.19710022 -0.17758968 0.038038988 -0.26221704 0.12832008
0.030597195 -0.19087069 -0.1402868 -0.11168714 -0.047789548 0.14988483 -0.07380756 -0.053536236
0.038061596 0.05965598 0.10456571 -0.15793057 -0.038282666 0.04979146 -0.038097415 -0.12672956
00000000: c25c d6bd c4b7 02be c738 e6b9 e29a 633b
00000010: 98a9 ea3c 8d9b c93c e030 fc3d edd1 bf3d
00000020: 9a96 98bd a0d7 bf3d 237d 103d abaa 883d
00000030: 2ec9 04be 8139 09be 6619 dd3d dea9 2c3e
00000040: bd08 413d 33b0 543d 3565 383c fd6a 8cbd
00000050: fc37 903d 3a5a bdbd 40cd 2ebe ba99 153e
00000060: ff1f 0abd 425d dfbd abff f03c dc02 5a3d
00000070: f28f 57bd 9174 82be c303 d5bd 6be8 3abd
00000080: 1936 573d 8136 29be b45c 253e 8dd9 b5bd
00000090: e3cc 253e 40a3 d9bd 2e31 7dbd ccce 29be
000000a0: 8489 3abe 78ce 1fbd bfef 46be 20c2 13be
000000b0: 2e45 c6bd 8d69 203e 823d 70be 0532 a63d
000000c0: a5a8 aa3c 5029 fd3d 0db5 41be d8ff 943d
000000d0: 3c59 17be 0ef7 aebd 8d49 c8bc de2c 01be
000000e0: 220b cd3c 4ab4 08be e1b2 1cbd 66f2 2b3d
000000f0: 037a fabc fa18 5ebd 0ea0 fdbd 01b9 2dbe
00000100: 7c4b 663e af0a 26bd bebe ed3d 75ee 213e
00000110: 895d 1ebe 76c1 72bd 9aba 61be 3f78 eebc
00000120: bcfb 18bd 1491 9ebe d335 74be 2901 f5bc
00000130: 7846 cd3d 234a 69bd e6d1 013e 55f0 a23d
00000140: ecb1 fb3d 82e5 533d 3a9e 22bc f1f9 85be
00000150: d524 6fbe 26fd eabd 1f3b c1bd 1fae 74be
00000160: 6fd7 e23d 0b3d 00be b463 c63c e313 153e
00000170: 4080 1f3d aea0 c4bb 437e b5bc 5e6e aabc
00000180: 077e ca3d 0ed5 bc3c e4e8 0c3d f2b8 243d
00000190: 063b 51be 3e03 50bd dbda 1d3e 2659 8bbc
000001a0: 11f3 08be 456a 05be 7bbe fc3d 5dec 32bc
000001b0: 025b 893e 5b47 a33d 83a7 ea3c b571 febd
000001c0: 2b93 77bd 79f0 1b3e 0084 23be d2de 5abe
000001d0: a0d6 e53d c9c3 ba3d e2fe 663c c007 debd
000001e0: 9275 6c3c 5ff7 cb3d aaf7 28bd f0ab 073e
000001f0: ed1e 273d 40e4 d23c 0952 ac3c 05e7 85be
00000200: 52ac 5239 264f 53be 498f 303d 175e c3bd
00000210: c65c 65bd 2c8f a8bc e5e3 c8bc 48de c73d
00000220: 8a44 203e 9e05 993d 3fcb 56bd a23a 953d
00000230: b42b f23d 1b36 96bd 9cd4 a6bd f5c5 8c3d
00000240: e3bc 75be adc2 d4bd 147b 02be 1612 2cbd
00000250: 548b c8bb f9b0 233b cf97 22bd 8db6 b53d
00000260: db9c 80bd 519d d2bd 9cff d63c 4811 be3d
00000270: 25ef 4ebd c6df 0c3c 0d00 53bc 9df5 abbd
00000280: 9030 163d 638e 67bd d471 18bb f744 3c3d
00000290: 8f30 5cbc fe80 113e 41c6 54bd 360b 39be
000002a0: 1013 70bd c5ff eb3d 0162 cc3d 88b0 7bbe
000002b0: 8dc2 bb3d 87e2 07be 63ef af3d 5c69 1f3e
000002c0: bca8 7c3d 0f13 c13d ce39 06be d021 5cbd
000002d0: b980 6abd dadb 0ebd dabd 693d cf08 17bd
000002e0: 6f93 0e3d 97bd 78bd 5fde f33d 2ecb 06be
000002f0: e30b 25bc 699a e9bd e48c 3e3d 95e8 143e
00000300: da94 0cbe 1b4f edbd d708 17be b983 14be
00000310: 959b 77be 1854 573d 4648 99bd c1ac 603c
00000320: bcc8 dd3d b452 e83d 4e99 acbd c60a ae3d
00000330: 7e82 80bd b222 ebbd 3651 a33d ed8f f73b
00000340: 1997 cb3d 761a d83c e4f0 893d b09a 00bd
00000350: 64f9 35ba bbeb b5bd 2cab 963c b460 6cbd
00000360: f025 853b a6e1 0d3e 6a5a e4bc 4dc7 6b3d
00000370: fac0 b03d 1c6f 823d 7a78 c4bd beee 913c
00000380: 5485 70bd c139 383e 6eea 063e 319e afbc
00000390: f3fe 91bd aee9 ef3d cc45 e13d c028 91be
000003a0: b758 43bd a8df 50be b8fc 7bbd a4d4 49be
000003b0: 12da 35be c5ce 1b3d 5041 86be 5766 033e
000003c0: f8a6 fa3c 9b73 43be 58a7 0fbe 3abc e4bd
000003d0: f9be 43bd 697b 193e 6b28 97bd d048 5bbd
000003e0: 7ae6 1b3d d459 743d 8c26 d63d 8db8 21be
000003f0: 49ce 1cbd 21f2 4b3d 090c 1cbd 65c5 01be

output.bias f4 [10]
-0.07745036 0.00015990908 0.07271637 0.15554288 -0.13456324 -0.07010364 0.042190645 -0.08366275
0.10361499 -0.013867303
00000000: 4b9e 9ebd 44ad 2739 52ec 943d a246 1f3e
00000010: f2ca 09be 7f92 8fbd 19d0 2c3d 6057 abbd
00000020: 1934 d43d af33 63bc
